data/weights/neural_network.pth (torch, 76431 bytes, 19 tensors)

weight f4 [128, 41]
000000 44 62 f7 3c 7a 8d 49 3d 04 58 3e 3d 63 e5 84 bb
       0.030198224 0.04920719 0.046470657 -0.0040556653
000010 3a f1 95 ba 3e b6 17 bd 9f 43 e1 bb c4 93 8f bb
       -0.0011439689 -0.037039034 -0.006874516 -0.0043816287
000020 bf f5 30 bd 5c 6f e2 3b b9 e3 12 bd b0 6f 83 3b
       -0.04320311 0.0069102477 -0.035861704 0.004011117
000030 77 a8 ae 3c 4f d1 d0 bc 97 fe ce 3c 4e ee eb 3c
       0.021320565 -0.025490431 0.025267882 0.028800156
000040 8b 45 33 3d 55 98 82 3c 4c 19 d2 bc 3c 22 ff bb
       0.043767493 0.015941778 -0.025646828 -0.0077860635
000050 e0 02 37 bc 11 21 93 3c 5a 10 c8 3c 72 9e ab bc
       -0.011170119 0.017960103 0.02442186 -0.020949576
000060 30 b4 c5 3c ad 99 58 bc 3e 91 46 3c fd 9d e0 bc
       0.024133772 -0.013220233 0.012119589 -0.027419085
000070 45 9a 34 bd ae cc f0 3c 93 82 c9 3c 85 b2 0c bd
       -0.044092435 0.029394474 0.024598395 -0.034349937
000080 5e 09 a9 bc 77 e6 46 3d de 60 ce bc f0 88 06 ba
       -0.02063435 0.048559632 -0.025192674 -0.00051320996
000090 f6 ad bd 3c 23 43 e5 bc 2d 85 7b 3c 77 32 9a bc
       0.02315424 -0.027986115 0.015351576 -0.018822892
0000a0 01 55 df 3a 06 fe 11 ba c1 61 dd bc 3f 89 e8 3b
       0.0017038883 -0.00055691635 -0.027024152 0.007096439
0000b0 d0 19 0a bc 6a 7d d3 3b 90 0a 1e 3d 3a 37 1a 3c
       -0.008429006 0.0064541595 0.038584292 0.009412581
0000c0 b6 69 2c 3c cc a4 36 3c c4 e1 37 3c fd b2 b0 b8
       0.01052325 0.011147689 0.01122326 -8.425673e-05
0000d0 8b cc 28 bc 1f e7 24 3c 69 74 2c 3c f2 68 ea bb
       -0.010302673 0.010064869 0.010525801 -0.0071536237
0000e0 77 ef 09 3b bc 3a e4 bb b4 aa 99 bb b3 f5 66 3c
       0.0021047273 -0.0069650095 -0.004689539 0.014096665
0000f0 36 e4 51 39 8a 06 12 bc ae 11 63 3b f1 05 86 bb
       0.00020016808 -0.008912692 0.003464799 -0.0040900637
000100 3b 53 1d bc a6 93 77 bc 50 fe 16 bc 37 5a 11 bd
       -0.009602363 -0.015110886 -0.009215906 -0.035486426
000110 d9 c0 c8 bc cc 53 2b bc f3 6b b2 3a eb ea 08 bd
       -0.02450602 -0.01045699 0.0013612494 -0.03342716
000120 13 ad 52 bb 28 4b c7 bb 6f 0d 2b 3c 52 01 89 3b
       -0.0032146617 -0.0060819574 0.010440215 0.0041810656
000130 a3 85 04 bc c3 e0 51 bb 44 1b 74 bc 54 b3 25 bb
       -0.008088502 -0.0032024838 -0.014899079 -0.002528389
000140 2a 65 8c bc d8 c0 05 bc cb 51 5a bd c8 76 22 bb
       -0.017138083 -0.008163653 -0.05330066 -0.0024790037
000150 1a f2 1d 3c 07 fe 5d bb 7f 39 3a bc 03 da 3f bc
       0.009640241 -0.0033873336 -0.011366247 -0.011709693
000160 86 82 1f 3c ed b7 fb bc 53 32 9c bc a7 4c 1c bc
       0.009735709 -0.030727351 -0.019066965 -0.00953976
000170 fe 20 df 3b a0 e4 e2 3b 15 ac 80 bc 28 48 e5 ba
       0.006809353 0.006924227 -0.015707055 -0.0017492818
000180 b9 6d f3 3c d8 63 10 3c e0 a9 76 3a 63 e0 23 3c
       0.029715406 0.008812867 0.00094094686 0.010002228
000190 35 42 c6 bc d8 e7 7d bb f4 42 7b bc 1a 97 33 bb
       -0.024201492 -0.0038742926 -0.015335787 -0.0027403296
0001a0 f8 c7 e4 3b d2 c7 86 3c cd cc 2c 3c ce 08 22 bc
       0.006981846 0.016452704 0.010546875 -0.0098897945
0001b0 64 ed 1d 3c 90 a9 a5 bb 5f 6c 79 bb c8 0c 80 3c
       0.009639118 -0.005055614 -0.003805898 0.015631095
0001c0 12 f1 24 bc c4 a4 00 3c ab 2f 55 bc 01 2e 0b 3c
       -0.010067241 0.007851783 -0.013011853 0.008494855
0001d0 6a 0a a5 bc dd 19 37 3c 2c 13 f1 bc 0a f6 f6 bb
       -0.020146567 0.0111756 -0.029428087 -0.0075366544
0001e0 32 39 cc bb d1 c1 e2 bb 6b 4b 74 3c b8 73 41 3c
       -0.006232404 -0.0069200774 0.014910559 0.011807375
0001f0 ad 1e 03 3d bd 45 be bb 50 91 47 bc 89 ab 21 3d
       0.032011677 -0.0058066533 -0.012180641 0.03947023
000200 88 d5 1a bd 33 2a 9a 3a 8f 28 a6 bc 6a 91 0d bd
       -0.037801296 0.0011761844 -0.020283012 -0.034562506
000210 5e b2 54 3b 42 50 e2 ba c0 55 6b 3c 1c a3 0e 3c
       0.0032454948 -0.001726635 0.014363706 0.0087058805
000220 26 83 d1 3c 2b 68 58 3c 9d 1f f6 bb a2 c0 f6 3c
       0.025575232 0.013208429 -0.007511093 0.030121151
000230 39 e2 6d bc b6 82 f7 bb 6c 88 ea bc a3 14 21 bd
       -0.014519268 -0.0075534238 -0.028629504 -0.03932632
000240 b8 2e 30 3c 35 6d 3a 3c d4 f3 13 bc 94 35 19 bb
       0.010753326 0.011378576 -0.009030301 -0.0023377882
000250 bd 8c ba bc 5b 50 bc 3c da d3 42 bc 1b b8 60 bc
       -0.022772187 0.022987535 -0.01189133 -0.013715769
000260 e2 87 a0 3b be ef a5 3c e1 5a 28 bc 42 b6 a1 3c
       0.004899011 0.02025592 -0.0102755735 0.019740228
000270 aa 3f 4c 3c ef 72 b7 3c 00 8f 5d bc 19 7b e5 bc
       0.012466351 0.022393672 -0.013522863 -0.0280128
000280 77 5c d0 bc 95 28 fb bc 16 0c 2d bc cb a0 89 3c
       -0.025434716 -0.030659 -0.010561964 0.016800305
000290 b0 a4 90 bc 53 c2 43 bb c7 52 98 bb e4 32 dd bb
       -0.017656654 -0.0029870465 -0.0046485397 -0.0067504514
0002a0 1b 6f e5 bc 49 47 25 3b 4a 98 de bb 6d f2 87 ba
       -0.02800708 0.0025219491 -0.0067930566 -0.0010371931
0002b0 30 a4 8d bc 81 46 a1 bb 14 28 5f bc fe f9 57 bc
       -0.017290205 -0.004921735 -0.013620395 -0.013182161
0002c0 03 52 9b 3c f5 db 25 3d f5 a2 8b 3c 43 46 81 3a
       0.018960005 0.04049297 0.017045477 0.0009862859
0002d0 2d 97 05 3c dd 60 b1 3b 62 ca 30 3c 70 7d 83 3b
       0.008153719 0.0054131583 0.010790439 0.004012756
0002e0 6a c9 6f bc fd aa 92 bc 27 69 d5 3a 1c 4d 99 3c
       -0.014635423 -0.0179038 0.0016281948 0.018713526
0002f0 7c d5 8a bc 17 51 6d bc 1f 5c 63 3c 7a 67 59 3c
       -0.0169475 -0.014484665 0.013876944 0.0132693
000300 ff b0 79 3b 1f 78 8d 3c 59 47 fb 3a 59 bf db bb
       0.0038099883 0.017269192 0.0019171044 -0.00670616
000310 48 23 23 3c 23 76 0b 3c 76 cf ab 3c e1 7e 4d 3c
       0.009957142 0.008512053 0.020972949 0.012542457
000320 a1 dc 90 bc aa 20 e6 3b c1 0a 9f bb 20 5a d6 bb
       -0.017683329 0.007022937 -0.004853577 -0.0065415055
000330 df d4 0b bc 34 19 10 3c 9f dc 87 3c 3a f0 99 bc
       -0.008534639 0.008795071 0.016584693 -0.018791307
000340 a0 fe c0 3c d3 ab 5c bc e7 c0 f0 3c 8c 95 a1 bc
       0.023558915 -0.0134687 0.029388858 -0.01972463
000350 43 4c fe 3b ce 5a 2c 3c b0 1b d5 3b f3 ac 9c 3b
       0.007760556 0.010519696 0.0065035447 0.0047813593
000360 f6 c1 61 3c f3 05 72 bb 5d 34 dd bc d7 21 26 3c
       0.013779154 -0.0036929816 -0.027002508 0.010139904
000370 2d 90 8d bc f8 18 f2 bc d4 23 5b bb fd e3 1d 3c
       -0.017280662 -0.029552922 -0.0033438103 0.009636876
000380 87 bc f1 3a 6d d7 fb 3b de bf 3e 3c 61 de 7e 3c
       0.0018443026 0.007685593 0.011642424 0.015555949
000390 56 72 11 ba 79 8a 6e ba 54 d8 38 3c ad 15 6a 3c
       -0.00055483484 -0.00090996135 0.011282045 0.0142873945
0003a0 12 d9 f0 39 f6 f8 c6 bc c0 37 fc 3c 10 da d6 bc
       0.00045938097 -0.024288636 0.030788302 -0.026227027
0003b0 9c 76 a2 bb 84 55 89 bb b6 ad 0a 3c c3 19 99 bb
       -0.004957987 -0.0041911025 0.0084642675 -0.0046722605
0003c0 f6 3a 54 bc f4 e4 1f 3b bd 96 18 3c 18 3b 51 3c
       -0.0129535105 0.0024397941 0.009313283 0.012770437
0003d0 34 0e 09 3b 38 0e 3b 3c c3 be 91 bd 75 81 81 3d
       0.0020913007 0.011416964 -0.07116463 0.0632352
0003e0 9c d9 a5 3c e1 0e 8e 3b 41 80 42 3d 95 31 3f bd
       0.020245366 0.00433527 0.047485594 -0.046678144
0003f0 bb 19 17 3c 3a 91 2c bd 4e 52 60 3b 73 fe 12 bd
       0.009222443 -0.042130686 0.0034228745 -0.035887193

bias f4 [128]
000000 a9 26 98 b1 f6 dc 02 31 e7 90 61 b1 06 b8 04 b1
       -4.4281774e-09 1.9043092e-09 -3.2824177e-09 -1.9313133e-09
000010 6d ce ea 2f 98 04 f3 31 02 e2 00 32 2c 22 19 30
       4.2711026e-10 7.072753e-09 7.501969e-09 5.5709637e-10
000020 03 f0 e6 b0 e3 9e 9a 30 46 97 aa 2f d2 e7 9c b1
       -1.6802918e-09 1.1250133e-09 3.1030306e-10 -4.5665525e-09
000030 eb 4c f5 b0 4d 93 83 b0 42 f9 a8 af 4b e9 fe b0
       -1.7847958e-09 -9.57337e-10 -3.073613e-10 -1.8547238e-09
000040 85 58 e9 b0 ab ce 28 b1 38 1e e8 30 a4 e1 76 30
       -1.697814e-09 -2.4564695e-09 1.688881e-09 8.9814933e-10
000050 ca f2 b8 2f 33 d7 83 2f 9d 85 03 af 36 fe 08 b1
       3.3641917e-10 2.398167e-10 -1.196185e-10 -1.9935107e-09
000060 7f 96 a0 30 59 0c 0d b0 8e 74 7f b0 9c 60 af af
       1.1684306e-09 -5.131305e-10 -9.2934094e-10 -3.190096e-10
000070 22 cd eb b0 7c 4d 20 30 3d 70 18 31 07 5c f5 b0
       -1.7156803e-09 5.8317773e-10 2.2182711e-09 -1.7852252e-09
000080 e0 2d 09 b1 86 96 d9 b0 ed 7b 16 b0 62 aa c2 30
       -1.99622e-09 -1.5831609e-09 -5.474579e-10 1.4163783e-09
000090 de 52 9a 2f d2 e6 41 b1 2c 2a 8b 30 79 39 63 30
       2.8071317e-10 -2.8216403e-09 1.0125567e-09 8.266379e-10
0000a0 a5 cd 47 b0 db 95 92 b1 e5 c1 71 b0 28 fe dc b0
       -7.2688017e-10 -4.266196e-09 -8.795083e-10 -1.6079342e-09
0000b0 74 52 9d 2f b8 cb 09 b1 85 8b d3 b0 fc 83 6c b1
       2.861672e-10 -2.0051925e-09 -1.5391924e-09 -3.4417544e-09
0000c0 ad 88 24 b0 74 a7 46 af 93 c6 6b b1 68 20 3b af
       -5.985708e-10 -1.8067486e-10 -3.4309877e-09 -1.7019064e-10
0000d0 58 0d de 30 0f 85 37 b2 2f 60 08 32 77 fe 67 30
       1.6156418e-09 -1.0682256e-08 7.9381115e-09 8.4398927e-10
0000e0 80 53 47 31 36 ae 85 b0 90 f0 0e b1 0a 94 dd 30
       2.9005776e-09 -9.726537e-10 -2.0800464e-09 1.6121942e-09
0000f0 e3 19 f2 b0 82 cc bb 30 9f 21 f3 b0 ff 45 db b0
       -1.7615175e-09 1.3664165e-09 -1.7690133e-09 -1.5954241e-09
000100 cd 37 82 b0 b2 a3 aa af 40 9a f2 30 02 f0 1d 30
       -9.474604e-10 -3.1039132e-10 1.7651658e-09 5.745734e-10
000110 eb 26 04 31 0f bd 34 30 36 c8 c1 30 38 1e 58 31
       1.923065e-09 6.5752287e-10 1.4099502e-09 3.1449314e-09
000120 98 cd 8c 30 17 69 df b0 d7 24 2f 31 3e 8b be 30
       1.0244774e-09 -1.6255254e-09 2.5486793e-09 1.3863894e-09
000130 a9 0f c7 b0 66 ea 4a b0 f8 c9 b2 2f e5 fd 5f b0
       -1.4483607e-09 -7.382027e-10 3.252152e-10 -8.1487733e-10
000140 e1 d7 a5 2e f4 2c 98 31 54 ed ab 2f 11 63 69 31
       7.541679e-11 4.428893e-09 3.127335e-10 3.3962275e-09
000150 30 9f a2 2f 06 ae 4c b1 f3 a3 cb 2f bb 4e f0 b0
       2.9580738e-10 -2.9784828e-09 3.7041978e-10 -1.7484675e-09
000160 7e e0 0a b2 f6 95 19 b2 af c1 44 b0 69 af 4d 30
       -8.083701e-09 -8.939869e-09 -7.1579626e-10 7.482784e-10
000170 f8 ba 3a 31 18 d7 b5 2f 4f 40 e0 b0 a0 b1 2f 30
       2.7172842e-09 3.3076542e-10 -1.6316423e-09 6.391705e-10
000180 d8 02 01 31 02 6c 10 31 11 45 35 30 78 b0 7e b1
       1.8773587e-09 2.1016153e-09 6.5945566e-10 -3.7062176e-09
000190 76 13 a6 b0 d9 e9 1e b1 d3 ad c8 b0 b4 4d 10 31
       -1.2083621e-09 -2.3124953e-09 -1.4601319e-09 2.0998927e-09
0001a0 1b 35 ee 30 36 16 92 30 e1 4b 91 2f 36 ab 81 ae
       1.7331873e-09 1.0629211e-09 2.6429262e-10 -5.896654e-11
0001b0 52 eb 05 b1 a7 79 81 30 fd df 3d 31 ca 90 71 2f
       -1.9487811e-09 9.420561e-10 2.7630442e-09 2.1970262e-10
0001c0 ed bf 1a b1 fa d3 25 b2 a5 02 f1 2f f4 31 9d 30
       -2.2519047e-09 -9.652462e-09 4.3839524e-10 1.1437451e-09
0001d0 b6 e8 1b 31 43 44 34 b0 7e 6c 3b 31 62 5f 59 30
       2.268775e-09 -6.5580624e-10 2.7273752e-09 7.907969e-10
0001e0 22 58 1a 30 aa da b4 31 8b b9 44 b0 42 1a 45 b1
       5.615012e-10 5.2635487e-09 -7.1568057e-10 -2.8682199e-09
0001f0 63 0c 3d 30 92 61 df af 4c b8 86 2e 54 53 7d b0
       6.87754e-10 -4.0632792e-10 6.126352e-11 -9.215928e-10

weight f4 [128]
000000 ce b6 4b 3e 6f 7e 3c 3e 6c b8 42 3e 6b 48 42 3e
       0.19893953 0.18407606 0.19015664 0.18972938
000010 4c 0f 3f 3e 08 8a 35 3e a2 0b 5e 3e 29 6d 2d 3e
       0.18658179 0.17728436 0.21684125 0.16936173
000020 ba 15 47 3e 8c 0e 3d 3e c1 42 41 3e c2 4a 47 3e
       0.19441882 0.1846258 0.18873121 0.19462112
000030 42 d3 2d 3e 6b ba 3f 3e ff 18 2f 3e fe 3e 36 3e
       0.1697512 0.18723457 0.17099379 0.17797467
000040 7d af 48 3e 16 7b 54 3e 3e b6 2a 3e a1 af 58 3e
       0.19598193 0.20750079 0.16671082 0.21160747
000050 46 77 31 3e 2c e5 2b 3e 48 6c 29 3e a6 11 43 3e
       0.17330655 0.16786641 0.16545212 0.19049701
000060 ff 5a 3d 3e 5e 55 3e 3e 19 d5 27 3e 36 3b 3b 3e
       0.18491744 0.18587252 0.16389884 0.18284306
000070 bc e9 3d 3e 11 3c 3d 3e 38 90 51 3e ae e1 2f 3e
       0.18546194 0.18479945 0.20465171 0.17175934
000080 72 a6 33 3e e6 e7 34 3e 9c 76 24 3e 68 be 4b 3e
       0.17543963 0.17666587 0.16060871 0.19896853
000090 31 f3 7f 3e d2 d8 3b 3e a7 c3 37 3e cc cc 42 3e
       0.24995114 0.18344429 0.17945729 0.19023436
0000a0 89 49 36 3e ef 4f 39 3e 4b 62 44 3e 70 ac 3c 3e
       0.17801489 0.18096898 0.19178121 0.18425155
0000b0 55 49 46 3e 63 f1 3f 3e 4e a1 37 3e 23 23 3d 3e
       0.19363911 0.18744425 0.17932627 0.18470435
0000c0 8d a1 3c 3e 29 3e 42 3e 51 a8 3f 3e 9d b0 38 3e
       0.18421002 0.18969025 0.18716551 0.18036123
0000d0 4c 91 44 3e 6a 47 71 3e 0b 71 34 3e dd c6 35 3e
       0.19196051 0.23562399 0.17621247 0.17751642
0000e0 7d b5 33 3e 03 01 43 3e da 87 40 3e 67 70 42 3e
       0.17549701 0.19043355 0.18801823 0.1898819
0000f0 18 bb 2d 3e f9 43 36 3e f7 28 49 3e 3a c4 43 3e
       0.16965902 0.17799367 0.19644533 0.19117823
000100 9b d3 3e 3e fb a4 38 3e a9 4b 4f 3e 1f 65 30 3e
       0.18635409 0.18031685 0.20243706 0.17226075
000110 25 c6 69 3e f1 87 47 3e 70 4c 42 3e 7f 91 59 3e
       0.22829492 0.19485451 0.18974471 0.21246909
000120 ee c5 3f 3e 03 0b 30 3e 1b ba 61 3e 9b 93 44 3e
       0.18727848 0.171917 0.2204365 0.19196932
000130 59 a2 42 3e a6 e1 35 3e 4d 8a 4c 3e a1 02 2d 3e
       0.19007243 0.1776186 0.19974633 0.16895534
000140 78 1b 35 3e 5e fa 66 3e 80 9c 3a 3e 6a 43 37 3e
       0.1768626 0.22556445 0.18223763 0.1789681
000150 53 66 47 3e 89 f0 35 3e 2a 79 42 3e d6 03 53 3e
       0.19472627 0.17767538 0.18991533 0.20606932
000160 78 55 39 3e 2e 78 6b 3e 8b 02 42 3e 59 92 1f 3e
       0.1809901 0.22995064 0.18946283 0.15583171
000170 8b 53 4a 3e ec 2d 3d 3e c7 20 51 3e b9 41 49 3e
       0.19758432 0.18474549 0.2042266 0.19653977
000180 21 93 38 3e 7f 2e 3f 3e 73 9c 42 3e 00 d3 53 3e
       0.18024875 0.1867008 0.19004993 0.20685959
000190 b1 31 3e 3e 60 7b 56 3e 7d e8 2e 3e 0d e8 48 3e
       0.18573643 0.20945501 0.17080875 0.1961977
0001a0 2f b9 53 3e e2 71 3c 3e bf 0b 2b 3e 9c 75 2e 3e
       0.2067611 0.18402818 0.167037 0.17037052
0001b0 7c a6 62 3e 4f 46 42 3e c3 fa 32 3e 68 dd 2c 3e
       0.22133821 0.18972133 0.1747847 0.16881335
0001c0 c0 c3 2d 3e 38 07 62 3e d7 a9 44 3e 9f de 3f 3e
       0.16969204 0.22073066 0.19205414 0.18737267
0001d0 43 b9 32 3e 66 b6 2d 3e f3 9d 80 3e 16 51 35 3e
       0.17453484 0.1696411 0.25120506 0.17706713
0001e0 50 bc 31 3e 17 46 5b 3e 9a 88 4f 3e 03 fa 38 3e
       0.17356992 0.21413456 0.20266953 0.18064122
0001f0 14 48 2c 3e 66 c2 4d 3e 6e fe 4c 3e fb f3 2f 3e
       0.1682437 0.20093688 0.20018932 0.17182915

bias f4 [128]
000000 e2 6e 71 ba c3 a5 df bb 37 75 bf 3b c1 d2 6f 3c
       -0.0009209943 -0.0068251803 0.0058428305 0.01463765
000010 b4 99 6d bc bc c4 ca bb 04 82 38 3b 4a ff 42 bc
       -0.014501978 -0.0061880033 0.0028153667 -0.011901686
000020 0e 58 64 3a 46 ed 42 3c 02 aa 2f bc 8b f8 15 ba
       0.0008710631 0.011897391 -0.010721685 -0.0005720935
000030 66 42 18 bb 8d 4c 53 bc 9e 32 cc 3b d8 aa 35 bc
       -0.0023232936 -0.012896669 0.00623162 -0.011088096
000040 b2 f6 b0 ba 0d cb 0b 3c 95 39 54 bc 96 91 0c 3b
       -0.0013501255 0.008532298 -0.012953182 0.002144908
000050 84 90 82 bc 26 e0 16 bc 19 ac 42 bc f4 ab 8c ba
       -0.015938051 -0.009208715 -0.011881852 -0.0010732398
000060 e0 94 b6 bb 01 cd 2d bc a3 9d 51 bb 9e 2e 30 bc
       -0.0055719465 -0.010607959 -0.0031984828 -0.010753302
000070 12 80 83 ba 3d 3f 86 bc a0 ac fe 39 8b f3 4d bb
       -0.0010032675 -0.016387576 0.0004857527 -0.003142568
000080 c5 96 12 bc f5 47 25 3c 84 68 26 bc 86 18 00 bc
       -0.008947079 0.010087957 -0.010156754 -0.007818347
000090 97 85 cc 3b 9c 02 19 b9 bf c8 2a bc aa 3e 1f 3c
       0.006241511 -0.00014592189 -0.010423838 0.00971953
0000a0 86 72 d9 ba e3 8b 4e bb ec ab b2 bc 0e 62 d5 3b
       -0.0016589917 -0.0031516484 -0.021810494 0.006511933
0000b0 d1 51 6d ba 99 ff 69 3c 82 78 d2 3b 19 cb f0 bb
       -0.0009053024 0.014282131 0.006423057 -0.00734843
0000c0 0b 82 f7 bb a8 4a 95 3b a2 be 1f bc 0c 47 fa 39
       -0.007553344 0.004556019 -0.00975004 0.0004773665
0000d0 c1 9e 0a 3c 8c 38 71 3c 14 7b ac 3a 6c 4c b2 bb
       0.008460701 0.0147229545 0.0013159239 -0.005441239
0000e0 5f 3c 0f bc 80 66 f7 ba 32 21 b7 bb 17 f5 1a bc
       -0.008742421 -0.0018875152 -0.005588674 -0.009457848
0000f0 eb 42 87 bc 1c 26 54 bc d8 52 2a b9 3a 09 2d bc
       -0.016511401 -0.012948539 -0.00016243325 -0.010561282
000100 a7 95 8d 39 f9 22 98 bc 9f af 9d bb 6b 66 41 bb
       0.00027005115 -0.018571364 -0.0048121954 -0.0029510509
000110 ee fa 23 bc 48 f8 e5 bb 30 64 b7 ba 24 ed 48 bb
       -0.010008557 -0.007018123 -0.001399165 -0.0030658925
000120 75 c7 29 3b 65 ca 7c bc 50 f0 13 3b 90 d0 2b 3c
       0.002590624 -0.015429114 0.0022573657 0.010486737
000130 c3 34 a9 3b da ae 3c 3a 29 d9 c6 bb b5 5e 1f bc
       0.0051637604 0.0007197686 -0.006068368 -0.00972717
000140 ac 59 3f ba 76 03 c1 3b fb ee c6 ba 57 70 8b bc
       -0.0007299434 0.005890305 -0.0015177423 -0.017021341
000150 a9 5f 66 bb 92 a8 81 3b 3d 69 c9 bb e6 a2 f0 3b
       -0.0035152233 0.0039568627 -0.0061465786 0.0073436378
000160 73 0d 11 bc 94 7d a8 bb 60 bf a4 bc e1 08 f5 bb
       -0.008853304 -0.005141923 -0.020110786 -0.007477865
000170 78 75 8f bb e0 0e 80 bb b3 b6 b0 3b d0 01 29 bc
       -0.004378017 -0.0039080232 0.005392873 -0.010315374
000180 2e c5 43 bc 0f cf 9c bc 99 f7 ec ba 9d 20 0a 3c
       -0.011948867 -0.019141702 -0.0018079161 0.008430627
000190 fd e7 b4 bb 27 7c 20 bc 5d 5b 45 bb c0 1b 16 3c
       -0.005520819 -0.009795225 -0.0030114271 0.00916189
0001a0 39 29 a8 bb 8f da 80 3b 4b 31 ea bb 29 79 88 bc
       -0.0051318672 0.003932304 -0.0071469895 -0.016659336
0001b0 fe 68 a8 3c a0 f1 c0 ba 72 39 8e bc aa 25 8a bb
       0.020557877 -0.0014720447 -0.017361376 -0.0042159157
0001c0 0f fe 38 3b 33 e4 e9 3b 0e 14 f6 3b b7 fe e6 bb
       0.0028227603 0.007137799 0.007509715 -0.0070494073
0001d0 19 83 21 3c 98 24 90 bb ed ae 52 3c 90 1f 19 bc
       0.009857916 -0.0043988936 0.012859088 -0.009345904
0001e0 4b 4c 67 3b de ef 2a bc cd 53 d8 3b b8 88 ae 3a
       0.0035293277 -0.010433165 0.0066017867 0.0013315892
0001f0 74 3a 04 bc 09 12 b6 3c 3a f0 5a 3c 42 52 c5 bb
       -0.008070577 0.022225397 0.013362939 -0.006021769

running_mean f4 [128]
000000 00 57 29 39 df b4 ab 3b c0 19 7b b9 a8 a2 81 3b
       0.00016149506 0.0052400674 -0.00023946818 0.0039561577
000010 a8 56 23 3a 16 09 a2 ba 96 ff b6 3b 06 92 9d bb
       0.00062308693 -0.0012362327 0.0055846674 -0.004808667
000020 f9 ac 45 3b 12 72 bb 3a 19 85 33 3b 85 5e 86 bb
       0.0030162914 0.0014300963 0.0027392565 -0.004100623
000030 6e 29 10 bb e7 5f 0a bb 60 84 98 3b 14 55 49 bb
       -0.002199735 -0.002111429 0.004654452 -0.0030720877
000040 70 e6 09 bb d4 58 1c bb f2 78 ce bb 98 95 3b 39
       -0.0021041892 -0.0023856657 -0.006301039 0.00017889438
000050 1c 27 1e 3a 84 a9 95 3b 06 f2 9e ba 70 88 d8 3a
       0.00060330494 0.004567327 -0.0012126572 0.0016520154
000060 21 b6 41 ba e1 2e 40 3a 96 eb 9f 3b aa 0e 3b 3b
       -0.0007389505 0.0007331204 0.004880379 0.0028542676
000070 38 8f ba 3a e9 ed 97 b9 2e 18 f5 3b 10 d7 05 ba
       0.0014233356 -0.0002897822 0.007479689 -0.0005105594
000080 d4 b4 d3 3b 71 0e 4e 3b d8 03 76 bb 6c 3a b7 bb
       0.0064607654 0.0031441713 -0.0037538912 -0.005591681
000090 ce 09 f4 3b fe e2 3b 3b f9 b1 29 bb c7 5b 1d 3b
       0.007447458 0.0028669233 -0.0025893433 0.0024011002
0000a0 c2 30 1a 3b 44 2b e4 3a 7f 9c 05 3b 12 9f 0b bb
       0.0023527597 0.0017407914 0.0020387468 -0.002130453
0000b0 08 86 07 3a e0 9a 19 bb be 6e 4f bb cc 62 43 bb
       0.00051698135 -0.002343826 -0.00316517 -0.0029813526
0000c0 00 97 3c 3b c6 8f f1 ba 33 7e 8e 3b 95 97 d9 3a
       0.0028776526 -0.0018429689 0.00434854 0.0016600961
0000d0 e8 2f c0 3a 56 f2 df 3b f4 11 24 ba f2 9a 84 3a
       0.0014662715 0.0068343086 -0.0006258779 0.0010116978
0000e0 ec a6 f6 ba 10 29 9d bb 0e 89 f7 bb 60 dd e6 bb
       -0.0018818057 -0.004796155 -0.00755418 -0.007045433
0000f0 a6 ae 42 3b 76 4a 3c 3b f7 da 03 3b c6 c3 ee 39
       0.002970615 0.0028730906 0.0020119527 0.0004554076
000100 ca 84 01 3a 70 64 88 39 70 c6 05 3b f6 cb 40 bb
       0.00049407466 0.00026014773 0.0020412467 -0.0029418445
000110 7f aa 2e 3c 18 67 d8 bb 4e eb 74 3a 5c 12 c9 ba
       0.010660767 -0.0066040866 0.00093429245 -0.0015340555
000120 42 41 10 bb de 68 f9 ba f0 fa 86 39 fc 9e be 3b
       -0.0022011553 -0.0019028445 0.00025745435 0.0058172923
000130 40 34 84 b8 04 8c 00 bb 05 2c cb bb ea 95 eb 3a
       -6.303983e-05 -0.0019614706 -0.006200316 0.0017973755
000140 d0 9c 4a 3b 1e 15 7e 3b cc ca 8e bb e8 b3 9d 3a
       0.0030916221 0.003876991 -0.0043576714 0.0012031766
000150 da e4 59 bb c2 9f 90 ba 23 a2 b1 bb 3f b3 3d 3b
       -0.0033247978 -0.001103394 -0.0054209395 0.002894595
000160 a8 ba 34 3b 98 7c ab b9 d6 48 c6 3a 0a da 1d 3b
       0.0027577076 -0.0003270849 0.0015127908 0.002408626
000170 f7 13 87 3b 3a 7b 87 bb f8 00 c1 39 4c d6 27 bc
       0.004122253 -0.004134563 0.0003681255 -0.010243963
000180 97 0e 03 3b fc ab c9 bb 35 34 19 3b 8c a6 67 3a
       0.001999771 -0.0061545353 0.0023377065 0.0008836768
000190 06 a8 87 3b 30 de 25 3b 2a 0c 60 3b 30 07 8a 3b
       0.004139903 0.0025309436 0.0034186938 0.0042122826
0001a0 fa ac 87 bb e0 90 12 3b fc 2e ef ba 6b ec 80 bb
       -0.0041404935 0.0022364184 -0.0018248255 -0.003934433
0001b0 00 39 ab 38 95 f8 9e bb 0e aa 59 bb 50 ed 01 3a
       8.1645325e-05 -0.0048514106 -0.0033212933 0.0004956322
0001c0 80 14 aa b9 99 58 08 3c e1 27 32 3b ef ee 9a ba
       -0.000324402 0.008321905 0.0027184414 -0.0011820475
0001d0 d1 75 7d 3b 56 ff 12 ba fc aa 25 bb e0 a7 84 b8
       0.003867496 -0.0005607506 -0.0025278917 -6.32552e-05
0001e0 f6 65 2c 3b 3c a2 c3 ba 98 fb d3 3a f8 d1 c1 3a
       0.002630589 -0.0014925669 0.0016173003 0.0014787307
0001f0 55 bf 61 bb 5a e1 c9 bb dd ee dc ba c8 ed 11 ba
       -0.0034446318 -0.006160897 -0.0016855855 -0.0005566743

running_var f4 [128]
000000 40 64 35 3c 20 95 80 3c 1f 54 73 3c a3 fb b7 3c
       0.011071265 0.015696108 0.014851599 0.022458857
000010 69 be 37 3c 56 5f 89 3c 20 50 c8 3c f2 1b 25 3c
       0.011214831 0.016769093 0.02445227 0.010077463
000020 bc 29 04 3c 2f 2f 5c 3c 16 4a 68 3c 69 60 bf 3c
       0.008066591 0.013438984 0.01417782 0.023361402
000030 fa 53 50 3c f9 07 98 3c 1a eb 8e 3c f3 13 99 3c
       0.012715334 0.01855849 0.01744609 0.01868627
000040 71 7a 79 3c b6 9e f9 3c 17 e2 2e 3c 2b a2 99 3c
       0.015226946 0.030471187 0.010674021 0.018754086
000050 9f 01 11 3c 6a e3 57 3c b6 7b 72 3c b9 a0 a1 3c
       0.008850484 0.013176778 0.014800003 0.019729959
000060 ae ec e1 3c 31 99 58 3c 02 b8 79 3c d6 d9 09 3c
       0.027578678 0.013220117 0.015241625 0.008413753
000070 34 0c 97 3c 8d 39 63 3c 23 8b 9c 3c 80 01 53 3c
       0.018438436 0.013868702 0.019109314 0.012878776
000080 36 59 fb 3b c8 0a c4 3b 50 bd 96 3c 2e 4e bb 3c
       0.007670547 0.0059827305 0.018400818 0.022864427
000090 e3 db 12 3d 97 a0 2e 3c c4 8e 81 3c 08 46 66 3c
       0.03585423 0.010658405 0.015815146 0.014054783
0000a0 3c 5c 67 3c c1 80 21 3c 46 bf 37 3c f0 12 3b 3c
       0.0141211115 0.0098573575 0.011215037 0.011418089
0000b0 51 bb ed 3c 2a 74 a6 3c 46 be a8 3c c9 a3 43 3c
       0.029019983 0.020319063 0.020598542 0.011940905
0000c0 e1 a4 b8 3c 40 2d 21 3c cc ff 5f 3c 23 cf b3 3c
       0.022539558 0.009837449 0.013671827 0.021949356
0000d0 35 23 90 3c 74 84 e4 3c 9a 8c b1 3b 07 0c 8c 3c
       0.017594913 0.02789519 0.0054183723 0.017095579
0000e0 d6 36 32 3c 6f bf 40 3c 7f be 70 3c 49 5a bb 3c
       0.010877332 0.011764391 0.014693855 0.0228702
0000f0 b3 51 89 3c 00 d1 a1 3c 1d ef ac 3c 38 02 8b 3c
       0.01676259 0.01975298 0.021110112 0.016968831
000100 b6 a6 b3 3c 57 f8 8c 3c 4f 94 83 3c 24 ed b0 3c
       0.02193008 0.017208261 0.01606193 0.021597452
000110 2c cf 8a 3c 88 1a e7 3c df 22 4c 3c d0 0f c8 3c
       0.01694449 0.028210893 0.012459486 0.024421602
000120 ee ec 34 3c 88 9e 50 3c 02 81 7d 3c 1c 35 6e 3c
       0.011042817 0.012733109 0.015472652 0.014539029
000130 b9 f4 a0 3c 7d 28 9b 3c db 23 04 3d f4 93 bb 3c
       0.019647943 0.018940205 0.032260757 0.022897698
000140 e5 17 c5 3c 90 39 ff 3c 75 f9 21 3c 06 2f 46 3c
       0.024059245 0.031155378 0.009886135 0.012096172
000150 fa 61 86 3c 0b 1e b7 3b 86 5c 9f 3c 74 42 7d 3c
       0.01640414 0.005588298 0.019453298 0.015457738
000160 8f 28 25 3c f2 ad a9 3c 06 30 9e 3c fa 8a 4a 3c
       0.010080471 0.020712826 0.019310009 0.012362236
000170 38 e5 cb 3c b4 d8 7a 3c a8 ed 8b 3c d5 4f 9d 3c
       0.024889573 0.015310455 0.017081097 0.019203106
000180 17 fd dc 3c 8d fb b4 3c 13 81 89 3c 2c 38 98 3c
       0.026976151 0.022092605 0.01678518 0.018581472
000190 d7 6d bc 3c be 55 b0 3c 1d 1f 83 3c 2e 40 60 3c
       0.023001594 0.02152526 0.016006047 0.013687177
0001a0 00 81 b2 3c 2d 72 83 3c 31 d5 53 3c d4 82 e0 3c
       0.021790028 0.016045654 0.012929247 0.027406134
0001b0 8e 07 b5 3c d8 7e d7 3c 6a cc 3b 3c f4 dc 68 3c
       0.022098329 0.026305601 0.01146231 0.014212836
0001c0 f4 54 b9 3c f8 aa ee 3c 0c f7 d9 3c 85 31 a1 3c
       0.022623517 0.029134259 0.026607059 0.019676933
0001d0 90 0d 9a 3c 47 56 d8 3b f9 98 b0 3c be cc 59 3c
       0.018805295 0.006602082 0.021557318 0.013293443
0001e0 47 7b b8 3b 3a cf 73 3c 2d 0f b8 3c 97 9f 60 3c
       0.00562993 0.01488095 0.022468174 0.013709924
0001f0 88 92 96 3c 23 89 d0 3c 59 9a 97 3c b7 98 42 3c
       0.018380418 0.025456017 0.018506216 0.01187723

weight f4 [64, 128]
000000 a6 d3 01 3d c0 2f 9d 3c be df 91 3a bb f9 2d 3c
       0.031695984 0.019187808 0.0011129302 0.010618622
000010 99 5b c4 3c 42 3a e2 3b 8e bf bd 3c 19 08 94 bc
       0.023969458 0.0069039175 0.02316263 -0.018070268
000020 2d 86 61 bc c9 4f 71 bc a3 9d 30 bc ad c3 ea bc
       -0.0137649 -0.014728495 -0.010779771 -0.028657759
000030 0f d3 ba bc e6 61 d5 3c c0 eb 0f bb 35 30 10 3c
       -0.022805719 0.026047658 -0.0021960586 0.008800556
000040 5e e2 cd bc e0 ed cc bc 98 9c 7f bc f1 dd b8 bc
       -0.025132354 -0.025015771 -0.0156013 -0.022566767
000050 08 cb f3 bc f0 48 92 bb e6 0b b0 ba 1c 8a 83 3c
       -0.029759899 -0.0044642612 -0.001343128 0.016057067
000060 8c 5b a2 3c 4e c9 68 3c cb ab ad 3b cb 6e 1a bc
       0.019819044 0.014208151 0.0053000203 -0.009425829
000070 b3 07 dc bb 67 71 87 bc 3c a7 e3 3c bb 4b 9e 3c
       -0.006714785 -0.016533567 0.027789705 0.01932322
000080 fe 97 8b 3b 04 b9 1f bd 59 38 a1 3c 5f d2 4f bc
       0.0042600622 -0.038994804 0.019680189 -0.012684434
000090 de f7 5b 3d 95 d5 c9 ba b6 b4 b0 bc 9e 4e e0 ba
       0.05370318 -0.0015398735 -0.021570545 -0.0017113273
0000a0 0a 5a 86 bc 6e 7b 30 bc 08 c5 4d bc db 6f da 3c
       -0.016400356 -0.010771615 -0.012559183 0.026664665
0000b0 d8 8c e2 3c 5d d8 fd 3b 09 87 78 b9 9a c9 1e bc
       0.02765505 0.00774674 -0.00023701428 -0.00969162
0000c0 77 26 bb 3b d7 52 1c 3c b2 f2 39 3d 13 c5 ae bc
       0.0057113725 0.009541235 0.045397468 -0.021334207
0000d0 a4 7e 48 bc 28 37 e8 3c fa 0e be bb 13 a0 29 ba
       -0.012237225 0.028346613 -0.005800125 -0.00064706913
0000e0 b8 5b 38 3b 97 ca dd bb 3f 25 ff 3c 26 60 ca bc
       0.002813084 -0.0067685354 0.03114569 -0.02470405
0000f0 5b a2 83 3c f6 7c 29 3c 58 fe 65 3c 3b 29 48 3b
       0.016068628 0.010344734 0.014037691 0.0030542153
000100 7d 17 f2 3c 9a ab 4f 3c 5a 67 d8 3c 23 b3 83 bc
       0.029552216 0.01267519 0.02641647 -0.01607663
000110 3f e0 fe 3c b1 b3 46 3c d8 bb 88 3b da 92 0a 3d
       0.031112788 0.012127803 0.0041727833 0.033831455
000120 67 a4 ca bb ca 95 04 bc f5 2b d9 bc 89 83 db 3c
       -0.006184149 -0.008092353 -0.026510218 0.02679612
000130 75 59 a3 bc 75 a7 29 3c f5 1c 88 bc 3f 56 96 3c
       -0.019940117 0.010354866 -0.01661537 0.018351672
000140 a9 b9 10 3b 2f 59 f5 3c 10 67 49 bc cb f0 2f 3c
       0.0022083318 0.029949753 -0.012292638 0.010738562
000150 1e df ae 3b ba 95 24 ba ca 2f 80 3b 05 3a a2 3c
       0.0053366562 -0.00062784145 0.003911947 0.019803056
000160 81 8f 27 3c 4a 5f 19 3d f8 0e 00 3d 3c 7a 2a bc
       0.010227085 0.03744439 0.031264275 -0.0104051195
000170 80 26 16 3c 53 7b 58 3b 52 24 14 3b 28 49 86 3c
       0.009164453 0.0033032491 0.0022604656 0.016392305
000180 ab 2d 3e bc 7e 1d 1e 3c 40 45 30 3d f4 10 b0 bc
       -0.011607568 0.009650586 0.043034792 -0.021492459
000190 37 40 c4 bc 05 6b cf bb 0f a2 69 bc 74 c8 18 bc
       -0.023956401 -0.0063298964 -0.014259829 -0.0093251355
0001a0 e1 cd 23 bc c3 ee d5 bc e7 73 94 3b f5 80 71 3b
       -0.009997816 -0.026114827 0.004530418 0.0036850546
0001b0 03 52 8b 3c d0 a6 5a bc 2c 36 62 3c 87 b7 94 b8
       0.01700688 -0.013345435 0.013806861 -7.0913746e-05
0001c0 85 b4 e4 3b 3f 38 c9 3c 9e 97 55 bc 10 3e 9e 3b
       0.0069795274 0.024562953 -0.013036637 0.004829176
0001d0 d9 fc 03 3c 04 a4 8b bc 2f 09 fd bc f2 72 b4 bc
       0.008055889 -0.017045982 -0.030888168 -0.022027466
0001e0 67 c0 ee 3b dd 75 05 3d 33 02 87 3c c9 b5 81 bc
       0.0072861197 0.032583106 0.01648054 -0.015833752
0001f0 91 b8 d3 3c b0 05 b1 bb 71 0b 0b 3d 73 cc 05 bb
       0.025844844 -0.0054022893 0.03394646 -0.002041605
000200 05 4e 9e b9 fc 74 c1 bb 12 94 fd 3b 6c dd 12 bc
       -0.00030194237 -0.005903838 0.0077385986 -0.008963924
000210 db 69 87 3b 5f 48 e0 ba f9 70 7b 3c ec 18 4a 3c
       0.004132492 -0.0017111412 0.015346759 0.012335043
000220 c6 dc 8a 3b 6f 4e ce ba b0 97 48 bc 1d d8 c5 bb
       0.004237744 -0.0015739928 -0.012243196 -0.0060377256
000230 07 f0 5b bc 50 65 9e 3b 44 3d cb 3b 20 60 b8 bb
       -0.013423926 0.0048338547 0.006202372 -0.0056266934
000240 63 e8 34 3a ed 55 a4 bc 2b 70 75 ba dc d9 9c bc
       0.00069010834 -0.020060504 -0.00093627226 -0.019146852
000250 aa c7 a4 bb cf 0b 2d bb c9 3e 6b bb d5 c8 85 bc
       -0.0050286846 -0.0026404744 -0.0035895577 -0.016331116
000260 47 64 43 3c aa b1 86 bb 77 f5 1a bb 43 79 6b b9
       0.011925763 -0.0041105347 -0.0023644844 -0.0002245652
000270 30 8a 02 3c 27 53 47 bc 55 2c 86 bb 10 db 93 bc
       0.007967517 -0.012165821 -0.0040946403 -0.018048793
000280 69 9e 12 3c 1c a1 e6 bb e6 53 fd bb 1a c0 ea 3c
       0.008948901 -0.0070382487 -0.0077309487 0.028656054
000290 1d 77 05 3c 20 e9 0f bb c1 a3 cf 3b 00 e1 c1 3b
       0.008146075 -0.0021959022 0.0063366597 0.0059167147
0002a0 44 7e 22 bc 1a b3 ac 3b fd 59 dc bb f7 4c 03 bc
       -0.009917799 0.005270374 -0.0067245946 -0.008013955
0002b0 7e 88 15 bc 96 f9 21 3c a1 98 55 3c 14 39 07 bb
       -0.009126781 0.009886166 0.013036878 -0.0020633386
0002c0 b5 c8 77 3c a1 b5 1e bc 69 fa b8 3b 46 11 12 3d
       0.015123536 -0.009686858 0.0056450856 0.035661004
0002d0 3f 8b 29 bc 95 b2 11 bc f1 0b f8 bb 08 0d d6 3c
       -0.01034814 -0.008892675 -0.007569783 0.02612926
0002e0 6a 87 50 bc 16 a8 94 3b 6d 72 91 3c 17 7b 26 bc
       -0.012727598 0.004536639 0.017754758 -0.010161183
0002f0 d8 1f 8c 3c 88 09 21 bb eb 7c 36 3a 19 96 e4 3b
       0.017105028 -0.0024572331 0.0006961363 0.006975901
000300 ea fa 5a 3b 17 21 85 ba 48 d3 64 bc 57 a2 48 bb
       0.0033413717 -0.0010156956 -0.013966389 -0.003061434
000310 4b be d5 3c 22 d0 4d ba 89 0a 7b bc a8 54 ea 3c
       0.026091715 -0.00078511436 -0.015322336 0.02860482
000320 04 1d 3b ba f7 08 92 bb 60 4c 68 3b c6 ba 78 3c
       -0.00071378076 -0.004456635 0.0035445914 0.015181249
000330 dd e7 28 bb a3 e2 05 bc ba 09 9f 3c 81 33 8f 3c
       -0.0025772967 -0.00817171 0.019413818 0.017480614
000340 87 5a 1f bc 88 e3 5e bc 5e 23 3e 3c 4b ab ef 3a
       -0.009726173 -0.013604052 0.011605112 0.0018285302
000350 09 1d ae 3c 06 6e c1 bc fa cd 0f 3b c8 d8 1d bc
       0.02125408 -0.023612034 0.002194284 -0.009634204
000360 b5 7f c3 3b 93 0f bb 3c 53 a5 a1 bb 21 9f 4e 3c
       0.0059661516 0.022834575 -0.0049330383 0.0126111815
000370 c7 1f 97 3c 4f 4d 30 3c ec 53 0b bb 68 dc c1 ba
       0.01844777 0.010760619 -0.0021259738 -0.0014790418
000380 ab 36 63 bc f4 2a fd 3a 8b c3 bf bb 2d 26 b8 3a
       -0.013868014 0.0019315169 -0.005852168 0.0014049463
000390 9b d0 dc ba 8c 6d ed bb bb 74 05 bb 87 83 26 3c
       -0.0016846837 -0.007245725 -0.0020363766 0.0101631945
0003a0 f4 f9 87 3c ad 01 96 ba a3 ca 4e 3c 49 74 ef bb
       0.01659868 -0.0011444591 0.012621555 -0.0073075634
0003b0 81 9e 8f bc 7d 4f a5 3c 10 64 b9 3c ef 1a 56 bb
       -0.017531635 0.020179505 0.022630721 -0.0032669862
0003c0 f6 66 bd bb 35 58 96 3b 3d c0 0a bc 59 28 0f 3c
       -0.005780096 0.004588152 -0.008468685 0.008737647
0003d0 e1 e2 e4 bb ab c6 dc bb b7 7e 93 bc 37 42 ed 3b
       -0.006985054 -0.0067375503 -0.018004758 0.0072405594
0003e0 12 07 82 3c 73 f6 4a 3c f4 bd 36 bb 7d 2f f1 3c
       0.015872512 0.01238786 -0.0027884217 0.02944159
0003f0 57 bb b3 3b 95 15 a6 3c 3e 13 a4 3b 57 c3 6d bb
       0.005484979 0.020273963 0.0050071767 -0.0036279762

bias f4 [64]
000000 2b e3 98 31 e3 ed 64 30 00 a5 a5 31 1d 05 7e b1
       4.4496082e-09 8.3283974e-10 4.8208904e-09 -3.6964771e-09
000010 08 73 24 b1 e5 54 81 b1 f6 4e 79 31 31 da ea b1
       -2.3930529e-09 -3.7640455e-09 3.6279153e-09 -6.835102e-09
000020 00 2e 95 31 ba 67 b0 b1 a6 ad 3a b1 48 c2 ce 30
       4.3417003e-09 -5.1340665e-09 -2.716527e-09 1.5043691e-09
000030 cb ae ef b1 24 4d d7 31 97 46 af af 00 18 83 b1
       -6.975687e-09 6.2660934e-09 -3.1882472e-10 -3.8153303e-09
000040 56 df 4e b1 34 61 8f 31 84 48 88 30 80 55 3b b2
       -3.0103897e-09 4.1728985e-09 9.915913e-10 -1.0904273e-08
000050 bf e9 dc b1 97 c5 64 31 7f fa 87 31 fd 96 61 31
       -6.4294166e-09 3.3290684e-09 3.957495e-09 3.2827636e-09
000060 8d 5d 19 32 b0 28 0c b2 93 5d f4 31 bd 9e e4 31
       8.927043e-09 -8.158324e-09 7.111973e-09 6.65372e-09
000070 0e 7c 25 32 92 bd 42 31 bf 6f 20 31 f0 38 f2 32
       9.632471e-09 2.8338474e-09 2.3346585e-09 2.81984e-08
000080 aa e9 29 30 95 86 cf b1 40 0b 74 b0 60 f7 67 b2
       6.18139e-10 -6.039793e-09 -8.878267e-10 -1.3502216e-08
000090 23 f9 d2 b1 d9 b5 b2 31 e6 d2 54 30 4f d0 99 b1
       -6.140128e-09 5.2011555e-09 7.7424855e-10 -4.476568e-09
0000a0 42 21 14 af 52 fb 29 32 ac 7d 08 af 4a d7 41 31
       -1.3472337e-10 9.894238e-09 -1.2413776e-10 2.8207574e-09
0000b0 e3 21 1f b2 35 6a e3 30 2e ec 53 b1 26 8d c0 32
       -9.262723e-09 1.654661e-09 -3.0838794e-09 2.2415929e-08
0000c0 47 ae 18 b2 52 f8 27 32 f7 00 b8 31 48 c1 91 30
       -8.8871905e-09 9.777141e-09 5.3552145e-09 1.0605072e-09
0000d0 40 10 d7 30 f6 e5 4e 31 10 cb 2c b1 ba 06 7c b0
       1.5647927e-09 3.0107663e-09 -2.5144722e-09 -9.1686625e-10
0000e0 34 a2 5e b1 9a 85 9b af c5 d0 9a b1 24 ed fd 31
       -3.2397454e-09 -2.8289265e-10 -4.5057242e-09 7.390229e-09
0000f0 88 4a 0f 32 3f cd 2c b2 e2 6a 7b 31 91 4e 02 32
       8.340642e-09 -1.0058385e-08 3.6586063e-09 7.58486e-09

weight f4 [64]
000000 f2 85 90 3e 99 24 43 3e f5 42 37 3e c9 5c 43 3e
       0.28227192 0.1905693 0.17896636 0.19078363
000010 8c aa 56 3e 21 c0 4e 3e 47 d8 4a 3e b4 19 54 3e
       0.20963496 0.20190479 0.19809066 0.2071293
000020 25 59 51 3e b5 55 36 3e 62 f7 53 3e 72 a6 51 3e
       0.20444162 0.17806132 0.20699838 0.2047365
000030 7a 37 86 3e fa 5a 4e 3e 17 fa 55 3e c4 c7 3d 3e
       0.262142 0.20151892 0.20896183 0.18533236
000040 61 82 59 3e 7f cd 36 3e 87 f7 44 3e ff d4 5f 3e
       0.21241142 0.17851828 0.19235049 0.21858595
000050 c3 d7 52 3e 6b a1 46 3e c5 8a 5f 3e ea 32 4a 3e
       0.20590119 0.19397514 0.2183028 0.19745985
000060 a4 9c 8c 3e c7 16 36 3e 26 08 5b 3e 3a 0a 46 3e
       0.27463257 0.17782126 0.21389827 0.19339839
000070 97 c3 4f 3e 17 8a 6f 3e 79 65 37 3e 32 80 6e 3e
       0.20289455 0.23392521 0.17909802 0.2329109
000080 f0 ce 65 3e 74 27 64 3e 69 2b 76 3e 7a 0e 48 3e
       0.22442222 0.22280675 0.24039997 0.19536772
000090 a1 c4 76 3e ba d3 42 3e 49 26 60 3e 94 e5 42 3e
       0.24098445 0.1902608 0.21889605 0.1903289
0000a0 80 6f 52 3e 99 ae 3a 3e 51 c8 69 3e a0 7a 5e 3e
       0.20550346 0.18230666 0.22830321 0.21726465
0000b0 98 ab 5e 3e b4 18 63 3e 8e 8d 32 3e 44 f4 6c 3e
       0.21745145 0.22177392 0.17436811 0.23140055
0000c0 5c 94 47 3e 44 77 66 3e 22 13 33 3e de fa 67 3e
       0.19490188 0.22506434 0.17487767 0.22654292
0000d0 fa 18 45 3e 5e 66 55 3e 5a 6e 36 3e ad f8 4d 3e
       0.19247809 0.20839831 0.17815533 0.20114394
0000e0 b8 ae 4e 3e 0b e9 4f 3e 7d 38 68 3e dc f3 34 3e
       0.20183837 0.20303743 0.22677799 0.1767115
0000f0 b6 65 68 3e 26 8a 89 3e 90 4b 5c 3e 69 ef 6e 3e
       0.2269505 0.2686321 0.215132 0.23333515

bias f4 [64]
000000 6b 0d 60 3b c4 23 63 b9 95 ac 37 bc 49 5d a3 ba
       0.0034187685 -0.0002166173 -0.01121058 -0.0012463714
000010 78 1e c0 3a 75 d5 3b bc d0 10 0c bc 76 5c c0 ba
       0.0014657518 -0.011464466 -0.00854893 -0.0014675993
000020 50 c1 fc 3b f6 f0 95 ba 97 c8 a9 3c cd 3a bf bb
       0.0077134743 -0.001143961 0.020725532 -0.005835867
000030 80 8c 91 3c 7c bb b2 3b 93 8b ac ba 7e e5 27 bc
       0.017767191 0.005454479 -0.0013164155 -0.010247586
000040 d2 0f 42 3b de e7 15 bc e0 af c5 39 0d 88 bf 3b
       0.002961148 -0.00914952 0.00037705805 0.005845076
000050 a5 6d 02 bc 00 41 96 bb 34 e9 b0 3c 79 5c 81 bc
       -0.007960712 -0.0045853853 0.021595575 -0.015791165
000060 65 11 ed 3c 41 1d 1b bc 4c 6f b4 3a 7e 3d 13 bc
       0.028938958 -0.009467424 0.0013766079 -0.008986829
000070 ca 1d 92 ba 62 ff 71 bb ac 42 cc bb 75 53 ac 3c
       -0.0011147794 -0.0036925902 -0.006233534 0.02103589
000080 9f 3e c8 3b 8b d0 23 3c 05 f0 d9 3b cb be 98 bc
       0.0061109806 0.009998451 0.006650927 -0.018645665
000090 c4 fd 8c 38 c2 dd 09 3c 52 6c cb 3b 29 c5 43 3a
       6.722988e-05 0.008414688 0.006207981 0.0007468039
0000a0 9b 73 02 3d ab 47 f3 bb f9 91 25 3a bc cf 56 bb
       0.03184853 -0.007424315 0.0006316002 -0.0032777628
0000b0 75 e9 22 bb 25 71 a5 3b 8a 2d d7 bb b6 51 a6 3b
       -0.002485839 0.0050488883 -0.006566708 0.0050756587
0000c0 85 99 26 bc fb b2 94 3b 16 c7 85 39 94 92 1a bb
       -0.010168438 0.0045379377 0.00025516067 -0.0023585903
0000d0 f9 5f 5a 3b 37 e9 4b bc 38 17 19 3c 67 9a 6c bc
       0.0033321364 -0.0124457395 0.009343915 -0.014441109
0000e0 8b c5 da 3b d3 1e 40 3c 2e 50 e6 3b 08 2e 26 bb
       0.006676381 0.011726099 0.007028601 -0.0025357027
0000f0 b2 28 ac 3b 4a d2 8a bc ff 44 3f bc 83 1e 80 3c
       0.0052538747 -0.016945977 -0.011674165 0.01563955

running_mean f4 [64]
000000 0e d3 ee 3c 72 fa 5d 3c 35 d3 da 3b ec 89 19 bb
       0.029153373 0.01354848 0.00667801 -0.0023428155
000010 3a db fd 3c ad 49 33 3c e6 ce 10 bc a4 c8 bd bb
       0.030988324 0.010942859 -0.008838391 -0.0057917405
000020 74 b4 83 3b 03 6c 72 bc 43 ba 39 3b 02 1e 2e bc
       0.0040193144 -0.01479626 0.002833978 -0.010627272
000030 cb 75 46 bd 63 7f fc 3b 0e d2 12 bd 65 da 22 3c
       -0.04845218 0.0077056154 -0.035844855 0.009939765
000040 60 fd 7e 3c 74 7c 4a 3d b8 0f 1b 3a 97 92 f7 bc
       0.015563339 0.049435094 0.0005915123 -0.030221267
000050 68 af a8 3c a9 ac b4 3b 8a d5 68 bc d1 26 58 3a
       0.020591453 0.0055137468 -0.014211068 0.000824553
000060 02 3f 6f 3b f2 f3 e4 3c 03 4b 23 3d b0 6b 85 3c
       0.0036506061 0.027948353 0.03986646 0.016286701
000070 30 d0 03 bd c4 f1 99 38 92 fd 54 bc 58 84 11 bd
       -0.032180965 7.340641e-05 -0.012999909 -0.035526603
000080 2b e6 97 3c 16 34 89 3c 3d c4 c2 bb db c6 80 3c
       0.01854237 0.01674847 -0.0059438036 0.015719822
000090 03 b9 97 3c 06 a7 5a bc 53 4c 15 bd 0c 9f 8c bb
       0.018520838 -0.013345486 -0.03644974 -0.004291421
0000a0 0b 61 91 bc 95 f5 fa 3b 3b 0c 5a 3c 45 17 38 3d
       -0.017746469 0.00765867 0.01330858 0.044944067
0000b0 08 82 3d bc 10 cb 41 3c 58 75 85 3c 2f e3 33 bc
       -0.011566646 0.011828199 0.016291305 -0.010979458
0000c0 27 08 b0 3b 75 b6 17 bb 44 2b 17 bb 7e 3e b2 3c
       0.0053720656 -0.0023149524 -0.002306656 0.021758314
0000d0 66 47 b6 3c 12 62 81 bc e6 52 eb bc ea e7 7f bb
       0.022250842 -0.015793834 -0.028726052 -0.0039048144
0000e0 cf f2 3e bc b3 67 e8 3b 00 eb dc 3c df 66 49 bc
       -0.01165457 0.00709244 0.026967525 -0.012292593
0000f0 af 90 83 bb ac e7 42 3c ed 1c 48 3d 86 d6 eb 3c
       -0.0040150504 0.011896055 0.04885571 0.028788816

running_var f4 [64]
000000 8e 1b 6e 3b 7e e4 6a 3a 0f c4 03 3a ed 07 10 3a
       0.0036332342 0.00089604396 0.00050264684 0.0005494345
000010 b2 29 eb 3a 32 78 59 3a ea 72 78 3a 0f ce b9 3a
       0.0017941503 0.00082958036 0.0009477573 0.001417579
000020 2d a3 e8 3a 20 39 3b 3a 7d 51 cf 3a 45 8d 8b 3a
       0.0017748825 0.0007141996 0.0015817132 0.001064696
000030 90 de 8f 3b 14 a7 4f 3a 55 ed eb 3a 20 af 19 3a
       0.004390545 0.000792132 0.0017999808 0.00058625825
000040 39 33 bd 3a a3 91 4d 3a 65 92 86 3a 76 4b c3 3a
       0.0014434821 0.0007841831 0.0010267018 0.0014899808
000050 bb 5e af 3a f6 fb 32 3a bf 2a d1 3a 7d 9f 77 3a
       0.0013379672 0.0006827706 0.0015958174 0.0009446068
000060 04 6b 82 3b fe a3 04 3a 78 02 09 3b 28 0e 09 3a
       0.0039800424 0.0005059837 0.0020906013 0.00052282447
000070 f4 22 d2 3a 95 8f 0e 3b 8b ea 32 3a 84 2f d9 3a
       0.0016032145 0.0021753062 0.0006825111 0.0016569947
000080 3b 30 e9 3a bf 74 1f 3b a8 ca 0e 3b 32 0b 23 3a
       0.0017790863 0.002433106 0.0021788273 0.0006219625
000090 bf aa 1b 3b 57 66 6b 3a 9a a4 15 3b 11 3a 17 3a
       0.0023752896 0.00089797884 0.0022833706 0.00057688454
0000a0 19 47 fb 3a 67 33 18 3a 0b f6 ec 3a bc 33 77 3a
       0.0019170969 0.00058059994 0.0018078698 0.0009430011
0000b0 55 fa 4b 3a a3 9a c9 3a 2a 4c 4e 3a 6c 90 f4 3a
       0.0007781138 0.0015381168 0.00078696257 0.0018658764
0000c0 9f 3a 4e 3a 3b b4 08 3b 46 c7 16 3a 2b 16 db 3a
       0.00078670116 0.002085938 0.000575174 0.0016714981
0000d0 2d 91 ac 3a fe 45 a6 3a 3e b7 25 3a 4a 43 8e 3a
       0.0013165824 0.0012685654 0.00063215557 0.0010853794
0000e0 ff 87 0a 3b f2 55 dd 3a 9f f1 2e 3b e2 f1 36 3a
       0.002113819 0.0016886576 0.002669431 0.00069787924
0000f0 b2 fd 15 3b 7e 1f 77 3b df ed aa 3a 92 62 43 3b
       0.002288681 0.003770798 0.0013040862 0.002981339

weight f4 [32, 64]
000000 23 23 d2 3c 07 8f cf 3c 34 4b f1 3c ff 3f bd bc
       0.02565152 0.025336755 0.029454805 -0.023101805
000010 41 06 80 bc bb b8 15 bd 45 b5 05 bd 53 96 af 3c
       -0.015627982 -0.036553126 -0.032643575 0.021433985
000020 81 5a 85 3c 93 4a 82 3b 7a 84 a6 b9 f1 53 ae bc
       0.016278507 0.003976175 -0.0003176069 -0.02128026
000030 ca 73 b9 bc 4c f9 ac bc f7 76 95 3b 8a 69 34 3d
       -0.02263822 -0.021114968 0.004561301 0.044045962
000040 0f 9f e6 3c 2a 5f 99 bc 38 04 71 bc b8 fa 14 bc
       0.028152017 -0.018722136 -0.0147104785 -0.009092979
000050 2a b6 ad bc 6f 43 5c 3c c9 86 4f 3d 32 db c7 3c
       -0.021205027 0.013443812 0.05066565 0.024396513
000060 8c f8 d2 3c ae 84 c7 3c 96 c9 db bc 24 a5 21 bb
       0.025753282 0.024355259 -0.026829522 -0.0024665082
000070 96 c0 f3 bc de 47 52 bc 60 f8 0f bc e7 4c c3 bb
       -0.029754918 -0.012834517 -0.008787245 -0.005960095
000080 e8 79 c3 bc 54 91 3c bc 7e a8 15 bc d0 5d 91 3c
       -0.02386184 -0.011509258 -0.00913441 0.017744929
000090 be f2 9a bc db ff e9 3b f5 8f 99 3a cb ef eb bc
       -0.018914577 0.007141096 0.0011715876 -0.028800866
0000a0 b6 b0 31 3d d5 98 b9 3c 0d fb 55 bd b0 b4 08 bc
       0.043381415 0.022655884 -0.052241374 -0.0083438605
0000b0 57 fe a0 bc 4d 42 13 bc e4 5f 08 bc 3a 60 b4 3c
       -0.019652529 -0.008987975 -0.008323643 0.02201854
0000c0 2e 7c 18 3d 48 19 6d bc 97 56 48 3c 55 a2 80 bc
       0.037227802 -0.01447136 0.012227676 -0.015702406
0000d0 14 cf ac bc f7 49 89 bb 9b 58 f2 3b a6 e5 05 bc
       -0.021094836 -0.0041897255 0.0073958165 -0.008172428
0000e0 ff d8 27 3d f9 8b 1a bc f6 aa 83 3d 7c 85 3b 3a
       0.040978428 -0.009432786 0.064290926 0.00071533746
0000f0 a5 0c 24 3d 50 7b 09 3d d3 df 02 3d 79 0e 1a 3d
       0.04005112 0.033564866 0.031951737 0.03761146
000100 24 42 3d bd 44 cd e6 3c e2 6d 93 3c 8a e2 5a 3c
       -0.046205655 0.02817405 0.017996732 0.013359675
000110 8b 23 1b bd 82 19 da 3c 65 cd e9 bc c5 77 73 bc
       -0.037875693 0.026623491 -0.028540323 -0.014860098
000120 c7 6f 0e bd 9d 9c 80 bc 28 bb 1e bd e7 e1 27 bd
       -0.034774568 -0.015699679 -0.038752705 -0.04098692
000130 c3 7b 2b 3d 06 2d 34 bc 93 53 0c bd 9e 73 19 3d
       0.041866075 -0.010997063 -0.03425939 0.037463777
000140 84 f4 a2 3c 33 1a 45 bd df 79 1c 3d 49 7d 3f 3d
       0.019891985 -0.04812069 0.038202163 0.04675034
000150 35 37 04 bd bc 55 0a 3b 38 1f c6 bc 73 ae 54 3d
       -0.032279212 0.002110823 -0.024184808 0.05192418
000160 bd 71 10 bd 4a f3 45 bd 25 e6 8d bb 07 86 90 3c
       -0.03526472 -0.04832772 -0.004330414 0.017642034
000170 3e 4c e1 bb 86 e6 f7 3c fd 79 fa bc 17 00 e1 3c
       -0.006875544 0.03026129 -0.030575747 0.027465863
000180 d1 5c 5b 3b ae 7e c0 bc 23 35 56 ba 56 e4 c2 bb
       0.003347207 -0.023497906 -0.000817137 -0.00594763
000190 18 b4 cc bc a6 98 8d 3c 8d 6f 41 3d f5 8c 48 bc
       -0.02498822 0.017284703 0.047225524 -0.012240638
0001a0 05 e5 cf bc 09 03 2c bb 40 da 09 bd c2 cb 1a bd
       -0.02537776 -0.0026246926 -0.033655405 -0.037791975
0001b0 13 df 45 3d 79 6e 8d bc 5c 7e 07 3d 70 4d 2c bc
       0.048308443 -0.017264592 0.03307949 -0.010516509
0001c0 84 8f f8 39 bb 9a 5c 3b a8 df f7 3c 98 95 24 bd
       0.00047409174 0.0033661562 0.030258015 -0.040181726
0001d0 43 f8 22 bc df fe 55 3b 3c 6f 07 3c 77 fb 05 3d
       -0.0099468855 0.0032653136 0.008266266 0.03271052
0001e0 7c c0 90 bb 04 2a 89 3c 0f 72 28 bd 34 6c 25 3d
       -0.004417477 0.016743667 -0.0411244 0.040386394
0001f0 bc 84 3e bd ff 26 23 bd 28 ac 96 3c d1 fd 0d bd
       -0.046513304 -0.03983211 0.018392637 -0.034665886
000200 97 0e bf bc a5 cb fe bc d1 f7 f7 bb d0 9c d4 3b
       -0.023322387 -0.031102965 -0.007567384 0.00648842
000210 4a f9 14 3d b6 cd 82 3b 24 fd 9e 3c 56 d1 78 3d
       0.036370553 0.003991808 0.019407816 0.060746513
000220 33 bf 8c bc 1a cc aa bc 40 cc 2a bd 25 a8 78 3c
       -0.017181015 -0.020849276 -0.041698694 0.0151768075
000230 55 83 34 3d 91 3e 76 3c b4 a0 c4 bc 23 43 9e bc
       0.04407056 0.015029565 -0.02400241 -0.019319123
000240 52 f8 0d bc 81 2f f7 3c 38 84 54 bb d6 58 86 bb
       -0.008665161 0.030174019 -0.0032427441 -0.0040999455
000250 3c a0 b0 bb e3 32 4a 3b 13 13 10 bd 4e 39 1d bd
       -0.005390195 0.0030853085 -0.03517444 -0.038384728
000260 b9 61 91 bc a8 d5 be 3c 01 98 e9 bc e0 3d f4 3c
       -0.017746793 0.023295239 -0.028514864 0.02981466
000270 0b 12 18 3b 8d 3f 2b 3d 05 ef d1 3c 08 76 78 3b
       0.0023204114 0.041808654 0.025626669 0.003791215
000280 b3 9a 75 3b 75 bf 0e bc f7 06 f0 3c ce 05 81 39
       0.003747624 -0.008712639 0.029300196 0.00024609122
000290 be 14 50 3d 73 0b 42 bc 0c 8d 18 bc e6 b6 95 bc
       0.05080103 -0.01184355 -0.009310972 -0.01827569
0002a0 60 6b 08 bd 83 f3 61 bc 91 7f ac bc 77 77 c0 bc
       -0.033305526 -0.013790968 -0.021056922 -0.023494465
0002b0 a5 92 37 3c 3e 41 69 3d 6c ee 98 bc b4 7b 20 bd
       0.011204396 0.056946985 -0.018668376 -0.039180472
0002c0 67 f8 0a 3c 9e a4 96 3c 23 f6 84 bc 68 dc 26 3d
       0.008482075 0.018389042 -0.016230648 0.04073754
0002d0 9e d3 73 3c 2e a3 3e bb 0f 63 d4 3a 6c 2b 2a bd
       0.014881996 -0.0029088962 0.0016203838 -0.041545317
0002e0 07 01 52 bc fe aa 3b bb e8 3a a3 bc f9 84 85 bc
       -0.012817628 -0.0028635855 -0.01992555 -0.016298758
0002f0 c4 5a 15 bc 4b 15 a7 bb 19 80 c0 bc 4c 88 d7 bc
       -0.0091158785 -0.005098974 -0.023498582 -0.026310109
000300 a8 2a 3c 3d 9d 8f d3 bb 2e fc 21 3a 20 07 3a 3d
       0.045939118 -0.006456329 0.00061792403 0.04541695
000310 ee 22 45 bc 96 ca 4b bc bb 81 03 3d 40 65 31 bc
       -0.012032254 -0.012438437 0.032106142 -0.010827363
000320 e7 e4 fd 3b 64 60 4b bc 1d ca 0d bc 38 16 0d bc
       0.0077482346 -0.012413118 -0.008654145 -0.008611254
000330 93 60 e3 bb 69 bb c3 bc c7 c4 85 bc 77 c4 e0 3a
       -0.006939003 -0.023893075 -0.016329182 0.0017148395
000340 c5 c5 9d bc 57 f3 20 3d db c5 ff 3c ca d6 91 bc
       -0.019259343 0.039294567 0.031222275 -0.017802615
000350 c8 5f 72 bb 5e de 1f bc de 07 6b 3c 71 79 60 bc
       -0.003698336 -0.009757606 0.014345137 -0.013700829
000360 2b df 96 3c 61 40 be 3c 75 38 1f 3d fc 53 ac 3c
       0.018416962 0.023224058 0.0388722 0.02103614
000370 f6 85 3f bb 43 8d 6f bb b0 b2 c7 3b 58 49 ef bc
       -0.0029224134 -0.0036552704 0.0060942993 -0.029209778
000380 4b e5 91 bc 24 76 03 3d a6 b8 af bc 57 38 81 bc
       -0.01780953 0.03209509 -0.021450352 -0.015773935
000390 7b 05 a0 bc 0a bb c0 bc 0d 2b 5c bc 8f 45 9b 3c
       -0.019533863 -0.023526687 -0.0134379985 0.018954067
0003a0 3a 69 c6 3b f9 93 af bc 1f c1 e5 3c e7 e6 ac 3b
       0.0060550245 -0.021432864 0.028046189 0.005276549
0003b0 88 3a ea bc 29 44 d6 bc bc 93 0c 3d 01 71 4f 3d
       -0.028592363 -0.026155548 0.034320578 0.05064488
0003c0 ac 3e 40 3d ee 45 2f 3c f5 3f ae bc c8 ee 03 bd
       0.04693477 0.010697825 -0.021270731 -0.03221014
0003d0 cc ec b4 3c 67 ef b7 bc 1f 24 9a 3c 05 f5 93 3c
       0.02208557 -0.022453023 0.018816052 0.01806117
0003e0 7b 1e 16 3c 32 18 e0 38 48 fe 26 3b 3c a4 82 3c
       0.009162541 0.00010685659 0.0025481153 0.015947454
0003f0 aa 83 e5 ba 00 43 cc 3c ab 2b f1 3c 3c 32 c1 3b
       -0.0017510552 0.024934292 0.029439768 0.005895881

bias f4 [32]
000000 e0 09 3b 31 56 25 02 32 8b b8 05 31 3d cb fa b1
       2.7217695e-09 7.575485e-09 1.9458948e-09 -7.299063e-09
000010 0b 6d 90 30 31 45 b7 b2 f4 d3 a8 30 d2 cc 5d b1
       1.0508371e-09 -2.1335469e-08 1.228385e-09 -3.227616e-09
000020 d3 a7 44 32 2a de 1b b2 8e 73 ef 31 76 f1 4f b0
       1.144686e-08 -9.072702e-09 6.9689525e-09 -7.56493e-10
000030 36 f2 1d b1 4c 4f 6f b1 b7 47 bc b1 3b 6d f5 b1
       -2.2984188e-09 -3.4824152e-09 -5.479673e-09 -7.1428565e-09
000040 ab 05 15 31 13 3d 5b b0 ab 82 32 31 62 14 32 b2
       2.1685576e-09 -7.975853e-10 2.5976685e-09 -1.0365598e-08
000050 5d eb dc 31 e6 58 6a 31 88 79 2f b0 52 aa 4f b1
       6.4296004e-09 3.4102015e-09 -6.3837335e-10 -3.021928e-09
000060 b2 6b 08 2f ad 0d 80 30 73 75 aa b1 60 4f c0 2f
       1.2407389e-10 9.317113e-10 -4.9610036e-09 3.4980996e-10
000070 26 3d 1b b3 1d 21 91 31 f8 ea f9 31 86 b2 43 b2
       -3.6144364e-08 4.22382e-09 7.2735666e-09 -1.1391085e-08
