data/weights/neural_network.pth (torch, 76431 bytes, 19 tensors)

weight f4 [128, 41]
000000 8d 8d 7b 3b d5 91 b0 3c df 5b 16 bc a4 96 1d 3c
       0.0038383931 0.021553913 -0.009177177 0.009618435
000010 67 7a 8f 3c 16 ce 42 bb 41 f4 9b bc c3 bc 74 bc
       0.01751442 -0.0029724888 -0.019037368 -0.014937582
000020 51 ec b6 bc 5c 57 14 3c 55 79 81 bc 01 a4 0d ba
       -0.022329481 0.009054031 -0.015804926 -0.00054031616
000030 c8 72 be bb f8 a3 83 bc 81 82 c0 bc e0 aa 38 3b
       -0.005812023 -0.016069397 -0.02349973 0.0028178021
000040 c5 47 94 bb de 0b db bb ac fe 20 bc f2 f6 01 bc
       -0.004525157 -0.0066847643 -0.0098263435 -0.0079324115
000050 96 91 92 3b 90 a5 33 3a 98 8f 01 3c 7d 64 3a 3b
       0.0044729216 0.0006852979 0.007907771 0.0028441243
000060 8c 6e 45 b9 4a 45 35 bc b0 e2 4d 3b be dd dd bc
       -0.00018828566 -0.011063883 0.0031415634 -0.027083274
000070 9d 5a ad bc 67 9c f6 3b 08 95 d8 3c e9 4a 90 bc
       -0.021161372 0.007525969 0.026438251 -0.017613845
000080 42 bd 45 ba d6 68 e8 ba 57 4d 44 3c e5 d3 77 3c
       -0.0007543155 -0.0017731439 0.01198133 0.015126203
000090 33 52 fd bc 41 fe 15 bb 74 ef 00 3c 49 d7 0f bc
       -0.030922985 -0.0022887143 0.00786959 -0.008779355
0000a0 61 59 09 bc 1a e3 ba bc b6 ef 9c 3c f9 ed e7 bc
       -0.008383126 -0.022813369 0.019157272 -0.028311716
0000b0 a5 f5 89 3c c0 6c 02 3b c0 66 b3 bb c0 25 b7 3b
       0.016840765 0.0019901246 -0.0054748952 0.005589217
0000c0 42 b7 32 3c b6 4c 04 bc e8 ba c3 3c fb f6 da 3a
       0.01090795 -0.00807493 0.023892835 0.0016705686
0000d0 cc 78 b8 bc 42 d4 cd bc 6b 4a 1f 3c 19 e6 46 bc
       -0.022518538 -0.025125626 0.0097223325 -0.0121398205
0000e0 00 c6 78 3c c6 79 03 bc 6c 49 e6 3b cc 8a b6 3c
       0.015183926 -0.0080246385 0.0070277955 0.02228298
0000f0 b0 36 10 3d f0 40 f6 3c 2a 9a c2 bb 54 66 4a 3c
       0.035208404 0.030060261 -0.005938788 0.0123534985
000100 57 12 d0 3c da f7 92 bb a8 c5 97 bc a4 c9 42 3c
       0.02539937 -0.0044851126 -0.018526867 0.011888895
000110 0a b9 ae 3c ab 2b 60 bc 9b f3 c3 bc 7a 56 1d bc
       0.021328468 -0.013682286 -0.023919871 -0.009603137
000120 b1 82 38 38 26 5a 97 3c b4 62 0d 3b bb fa ec 3b
       4.3990734e-05 0.018475603 0.0021573724 0.007232038
000130 aa 4d 62 3c c2 4b 14 3c d6 9e c6 3b 42 3c be 3a
       0.013812462 0.009051265 0.006061415 0.0014513808
000140 48 b3 fd bc 6e 29 1a bc 2a b2 42 bd c9 f8 6b 3c
       -0.030969277 -0.009409292 -0.04753319 0.014402577
000150 e2 a1 de 3c 4a 6c 1f bc 76 66 b2 bc 6f 35 32 bd
       0.027176801 -0.009730408 -0.021777373 -0.04350799
000160 70 be 75 3b 8d 46 55 3c 10 6c b1 3c 88 f7 ea 39
       0.0037497543 0.013017309 0.021657974 0.00044816383
000170 ca e4 67 3c e5 d8 29 3c ff d8 a3 3b 72 39 82 3b
       0.014153669 0.010366653 0.005000233 0.003974133
000180 26 98 e3 3c 54 98 9b 3c d5 6a 8f 3c 5e d5 88 3c
       0.027782511 0.018993534 0.017506996 0.016703304
000190 f9 a2 bf 3b 58 17 f1 ba 7a 7b 3e 3c 5a e5 f2 bb
       0.0058482853 -0.0018393798 0.011626119 -0.0074125947
0001a0 ea af 66 3c 95 2a b0 3b 80 87 ad 3c 9f 72 6b 3c
       0.014080027 0.00537617 0.021182775 0.0143705895
0001b0 ad 1d a7 bc 94 ee 95 bc cb 17 18 3c 7c 9f d8 3b
       -0.020399893 -0.01830224 0.009283016 0.006610809
0001c0 8d 96 b0 3c 6b 5b c0 bb 86 fb 21 3c e0 ab 20 3d
       0.021556163 -0.005870273 0.009886628 0.039226413
0001d0 a4 1d 26 3c 35 68 45 3d fa 11 0b bb 6e c2 0d 3c
       0.010138903 0.048195083 -0.0021220432 0.008652313
0001e0 8e d6 fd b9 fc 7b 98 3c b4 6c 16 3b c8 95 96 3c
       -0.00048415776 0.018613808 0.0022952976 0.018381968
0001f0 05 15 ba 3c db 12 9b b8 ad b5 e4 bb ab b1 58 3b
       0.022715101 -7.394488e-05 -0.0069796653 0.0033064883
000200 97 89 d1 3c f2 da f8 3b b3 e6 f4 bc 50 fb a9 bc
       0.025578303 0.0075944597 -0.029895162 -0.020749718
000210 a5 ee f9 bb 05 e0 c7 ba d9 e6 1e bc 8d d5 b9 bc
       -0.0076273256 -0.0015249258 -0.009698593 -0.022684837
000220 1c 3a ba bc 66 36 96 bc 19 7b e2 3b 6f 92 17 bc
       -0.022732787 -0.018336486 0.006911647 -0.009251221
000230 b9 bc 0e bc a5 fe 84 bc ac fa 74 bb 95 95 14 bc
       -0.008711987 -0.016234705 -0.0037380857 -0.009068866
000240 26 96 c5 3b 2a de 8e 3b 5b 0d 35 bc 0b 8a 36 3b
       0.006029862 0.00435998 -0.0110505475 0.0027853276
000250 f5 6a 77 bc 9e f7 bd 3c 04 9d 42 bc 84 0a e3 bc
       -0.015101184 0.023189362 -0.011878256 -0.027714975
000260 74 d4 10 bc a1 40 11 3d 56 a2 2d bc a5 1a 32 bc
       -0.008839715 0.035462026 -0.010597786 -0.01087061
000270 a2 7f b1 bb f2 cd 97 bc c8 e5 94 bc 40 f0 b1 bb
       -0.0054168263 -0.01853082 -0.018175974 -0.0054302514
000280 fd 42 87 bc 47 a1 a4 3a be 51 03 3c 62 f7 27 3c
       -0.016511435 0.0012560271 0.008015094 0.010251852
000290 8c 36 95 3c d6 2e ad 39 c1 6b 61 3a 23 36 9c bc
       0.018214487 0.00033032027 0.00085991254 -0.019068783
0002a0 f1 83 c2 3c 4e ad fc 3c 2c 0f af 3c 11 81 22 3d
       0.023744555 0.030844357 0.02136954 0.03967387
0002b0 57 7a 0c 3b 15 d9 a7 ba 70 40 16 bb 56 84 0b bc
       0.0021435225 -0.0012805784 -0.0022926591 -0.008515438
0002c0 cc c1 68 bc a2 5d 11 bc c4 88 8c bc 85 8b 2a bd
       -0.014206361 -0.008872421 -0.017155059 -0.041636962
0002d0 8d 8e 3a bc c5 9e 58 bc 8c c0 5d 3c 8a 7d 9a bc
       -0.011386526 -0.013221447 0.013534676 -0.01885869
0002e0 88 f2 2e 3c 21 74 2d 3c 1d 3d c3 3c 0b 4a d1 3b
       0.010677941 0.010586769 0.023832852 0.0063870004
0002f0 33 be 98 3c 11 c3 b8 3c f3 67 eb bb 15 0d 60 3c
       0.018645382 0.022553952 -0.0071840226 0.013674994
000300 5b 54 85 bc c3 e3 f8 3c d4 f9 88 bc 74 4a ee bc
       -0.016275575 0.030382043 -0.01672069 -0.029088236
000310 0e 30 1d 3a 79 ec 8e bc a6 3e 2d 3d 56 81 35 bc
       0.00059962354 -0.017446743 0.042296074 -0.011078199
000320 07 89 da 3b 8f 0c 37 bc ac df 57 bc 1b b7 d6 bb
       0.006669167 -0.011172428 -0.013175886 -0.0065525896
000330 15 94 e8 bc ff a6 2d bc 74 f8 87 bc ac 12 05 bc
       -0.028390924 -0.010598897 -0.016597964 -0.0081221275
000340 3c ba 94 3b f4 e9 71 3c bb d1 02 bd 29 3a f1 3a
       0.0045388024 0.014765251 -0.031938296 0.0018404174
000350 7f 5e 9b ba 4f 09 0c bc bb 85 3a b9 9f 1c c5 bb
       -0.0011853724 -0.008547141 -0.00017788161 -0.006015375
000360 2c 1b 52 ba 00 e6 18 bc 88 30 4b 3c 2b c2 56 bb
       -0.0008014913 -0.00933218 0.0124017075 -0.0032769542
000370 81 77 51 3c f5 8c b9 3c 43 1f a4 bc 29 71 05 3c
       0.01278484 0.022650221 -0.020034438 0.008144655
000380 84 01 84 3c a3 cb 85 ba 1b 48 77 bb 7e 23 ce bb
       0.016114004 -0.0010207783 -0.0037732187 -0.006290852
000390 95 48 d1 3b 9f df c5 3b c0 3a 3f bc 48 d9 20 bc
       0.0063868263 0.0060386206 -0.011671722 -0.009817429
0003a0 2c 25 7e 3b 5c db 53 bc c5 d4 8c 3a 85 d0 47 bc
       0.003877948 -0.012930717 0.0010744563 -0.012195711
0003b0 5a 19 84 bc 9a 6f 2d 3b ac 53 aa 3b 10 b0 46 bc
       -0.01612537 0.0026464225 0.0051979627 -0.0121269375
0003c0 0c 1d 9c bb 55 10 b0 3b a0 cb 47 bc 45 ca e9 bb
       -0.004764205 0.0053730407 -0.012194544 -0.007134708
0003d0 1e 8b 69 bc fa 3e 49 bc 26 54 03 3d 84 ea 0b bd
       -0.0142543595 -0.012283081 0.032062672 -0.0341592
0003e0 4f 3e 8b 3b 73 1e 1f 3c 5d dd b0 bb d5 77 ff bb
       0.004249371 0.0097118495 -0.0053974823 -0.0077962675
0003f0 6a 64 76 bc fd c7 f1 3c d1 24 2c 3c bc 0f a1 3b
       -0.015038589 0.029514307 0.010506825 0.0049152058

bias f4 [128]
000000 ab 86 a8 31 cb 84 0d 30 b2 28 38 b1 3a 40 18 b1
       4.9047535e-09 5.148421e-10 -2.6798657e-09 -2.215542e-09
000010 38 fe 89 b1 a0 d1 2a 30 ea 8e 4b 31 ca be 14 30
       -4.016126e-09 6.2143535e-10 2.9621625e-09 5.4113214e-10
000020 26 db a8 b0 1b 56 83 b0 84 c5 de 2d d6 9a a0 31
       -1.2285895e-09 -9.555977e-10 2.5326193e-11 4.6742157e-09
000030 0e 54 14 af 32 ea 60 2e e6 2a 14 30 82 32 a7 ad
       -1.3490384e-10 5.113971e-11 5.390305e-10 -1.9008132e-11
000040 4a 9c 60 30 dc f9 cb af 8d f0 25 30 df 23 b5 30
       8.1712825e-10 -3.710302e-10 6.0368494e-10 1.3179678e-09
000050 d6 cf 90 b0 26 e6 56 b0 14 d7 18 30 7b e8 8b 32
       -1.053645e-09 -7.8179807e-10 5.560292e-10 1.628745e-08
000060 f6 56 13 30 cd b8 79 30 6b 52 5c af c2 16 24 b1
       5.360187e-10 9.084829e-10 -2.0038164e-10 -2.3878077e-09
000070 9c c0 a2 b0 2c c0 eb 31 3a e7 c6 30 c9 0d 45 b0
       -1.1841794e-09 6.8612476e-09 1.4472115e-09 -7.168777e-10
000080 bb a4 c8 30 04 73 2c 31 2a a7 d9 b0 6e c8 9e 2e
       1.4598734e-09 2.5094673e-09 -1.5836339e-09 7.2206116e-11
000090 da f7 34 b0 05 fe 25 b0 31 57 36 32 9b 90 5b 2f
       -6.5835837e-10 -6.0387634e-10 1.0613619e-08 1.9969308e-10
0000a0 06 cf d0 b0 c4 a5 ce 30 33 da 48 b0 65 0a cc 31
       -1.5192831e-09 1.5035586e-09 -7.3069656e-10 5.938363e-09
0000b0 0b 76 bc 30 bf 44 06 af ae ea 1d 30 d5 60 1d 2f
       1.371235e-09 -1.2211653e-10 5.7449767e-10 1.4313468e-10
0000c0 53 38 bc 30 37 a0 39 b1 a3 72 b4 b0 89 3d 04 31
       1.3694809e-09 -2.7012115e-09 -1.3129305e-09 1.9243507e-09
0000d0 a7 fe 61 31 b3 bf 8a b0 db a3 c7 30 94 5f 1a 30
       3.2886562e-09 -1.0095306e-09 1.4525726e-09 5.61607e-10
0000e0 52 4c a8 b0 43 36 f5 30 14 e3 35 31 fa e4 49 31
       -1.22453e-09 1.7841518e-09 2.6468046e-09 2.9379508e-09
0000f0 f2 88 63 31 88 1f 1d 2f 05 ec eb 30 4b 00 0b af
       3.3110692e-09 1.4290269e-10 1.7165581e-09 -1.264208e-10
000100 72 db 86 b0 82 5e 7a af aa dd 56 b1 07 4d f9 b0
       -9.812153e-10 -2.2770943e-10 -3.12671e-09 -1.8139027e-09
000110 e5 a7 23 2f b8 9b d9 b0 19 23 9d 30 46 73 4f b1
       1.4884412e-10 -1.5833086e-09 1.1433229e-09 -3.018799e-09
000120 30 11 88 b1 74 45 a8 31 0a 46 31 af ca d8 db 30
       -3.960075e-09 4.8973394e-09 -1.6122939e-10 1.5995962e-09
000130 86 b3 d1 2f 34 58 39 b0 e4 4b d8 b0 d4 aa 05 31
       3.8144438e-10 -6.742795e-10 -1.5737638e-09 1.9451152e-09
000140 73 9e af b1 25 ea 52 30 80 0c 34 af 23 4a 52 30
       -5.111184e-09 7.6730294e-10 -1.6375346e-10 7.650291e-10
000150 23 ca e6 b0 59 d5 c6 af eb 27 da b0 2c ac 0f 31
       -1.6792153e-09 -3.6167583e-10 -1.5872933e-09 2.0907107e-09
000160 42 02 bf 2f d8 f6 81 30 ca 91 00 31 be b8 91 30
       3.4744302e-10 9.456143e-10 1.8709323e-09 1.0602645e-09
000170 92 8a 8e 31 c8 76 89 2f 8e 6e db 2f 60 ef 1c 2f
       4.1484975e-09 2.5004554e-10 3.9914422e-10 1.427316e-10
000180 da 87 42 b0 9d 28 14 b1 ec 52 94 af 5e 21 a7 31
       -7.0769846e-10 -2.155992e-09 -2.6979963e-10 4.864133e-09
000190 c6 e0 33 b1 68 46 a7 2f c1 07 9d af a5 fa a6 30
       -2.6175697e-09 3.042715e-10 -2.8563643e-10 1.2149327e-09
0001a0 27 bb d7 b0 e0 44 4b 30 4a a6 7b b1 e5 99 f3 30
       -1.5696501e-09 7.3948847e-10 -3.6619832e-09 1.7724316e-09
0001b0 63 2d 25 b2 09 8f 6c ad f7 8b 03 31 a0 1d 08 b1
       -9.614584e-09 -1.3446807e-11 1.914257e-09 -1.9807445e-09
0001c0 31 d6 ba b0 58 76 6e 31 7f cc f2 af 39 66 09 b1
       -1.3594158e-09 3.4700829e-09 -4.4164847e-10 -1.999423e-09
0001d0 7d 39 9e ad cd a0 17 31 a0 f9 0d b2 61 bc 97 31
       -1.798805e-11 2.2064797e-09 -8.264038e-09 4.4160946e-09
0001e0 96 ff c1 b0 7b 7e f9 30 62 06 b3 30 71 5d 51 31
       -1.411524e-09 1.8153082e-09 1.3025778e-09 3.0466618e-09
0001f0 58 f9 d3 30 17 71 23 2f ea 6d 41 b0 d8 51 51 b0
       1.5423138e-09 1.4864941e-10 -7.036919e-10 -7.6150064e-10

weight f4 [128]
000000 15 5e 37 3e 6d 50 3d 3e 75 cd 43 3e 17 6d 46 3e
       0.17906983 0.18487711 0.19121344 0.19377552
000010 8a e4 34 3e 43 29 24 3e 44 70 3f 3e 54 62 3c 3e
       0.17665306 0.16031365 0.1869517 0.18396884
000020 ae 34 4f 3e 08 23 35 3e 19 49 36 3e d1 d0 51 3e
       0.2023494 0.17689145 0.17801322 0.20489813
000030 02 96 33 3e c5 13 33 3e a1 a4 5c 3e a2 fb 68 3e
       0.17537692 0.1748801 0.21547176 0.2275224
000040 28 d6 57 3e 3d 22 3e 3e 09 31 49 3e 16 5d 37 3e
       0.21077788 0.18567748 0.19647612 0.17906603
000050 e3 e3 2b 3e 38 d4 35 3e a3 86 34 3e 70 ce 37 3e
       0.1678615 0.17756736 0.17629485 0.17949843
000060 f1 77 3b 3e 38 09 53 3e 57 df 2d 3e 32 25 31 3e
       0.18307473 0.20608985 0.16979729 0.17299345
000070 09 09 34 3e db 5b 4e 3e 7f 07 3d 3e ae ef 53 3e
       0.17581572 0.20152228 0.18459891 0.206969
000080 b1 f0 33 3e 9d 82 43 3e b4 7e 2b 3e 28 4f 31 3e
       0.17572285 0.19092794 0.16747552 0.17315352
000090 36 b5 24 3e 2b 92 33 3e 07 50 2f 3e a7 4d 23 3e
       0.16084751 0.17536227 0.17120372 0.15947591
0000a0 53 39 28 3e 7f eb 4a 3e bc fe 3d 3e fd 82 76 3e
       0.16428117 0.19816397 0.18554205 0.24073406
0000b0 d2 41 50 3e bd 74 23 3e 77 22 42 3e 4e 33 3f 3e
       0.20337608 0.15962501 0.1895846 0.18671915
0000c0 48 27 36 3e 0a d8 3e 3e 50 c2 3e 3e c0 74 2f 3e
       0.17788422 0.186371 0.18628812 0.1713438
0000d0 2e 1a 34 3e cf 0e 30 3e 92 a3 3e 3e 6f f8 51 3e
       0.17588112 0.17193149 0.18617085 0.20504926
0000e0 45 f6 31 3e 39 1c 3c 3e 54 45 56 3e 0c ae 2f 3e
       0.173791 0.18370141 0.20924884 0.17156237
0000f0 c8 7c 2f 3e 87 d7 52 3e 14 d3 59 3e 01 e4 38 3e
       0.17137444 0.2059003 0.21271926 0.18055727
000100 2b 29 47 3e 62 99 30 3e a4 bb 38 3e 40 7b 44 3e
       0.19449298 0.17246011 0.18040329 0.19187641
000110 66 b6 2b 3e e8 98 55 3e 4d d1 32 3e e1 d6 4d 3e
       0.16768798 0.2085911 0.17462654 0.20101501
000120 87 94 56 3e f5 44 57 3e 2b cb 4d 3e f2 2b 30 3e
       0.20955096 0.21022399 0.20097034 0.17204264
000130 1b 07 31 3e 83 33 34 3e c1 b8 2e 3e 53 92 30 3e
       0.17287867 0.17597775 0.17062666 0.17243318
000140 72 b2 42 3e 92 f3 2e 3e 65 02 2e 3e 19 85 30 3e
       0.19013384 0.17085102 0.16993101 0.17238273
000150 9f 42 37 3e 57 5a 63 3e 09 f3 3a 3e 27 10 3c 3e
       0.17896508 0.2220243 0.18256773 0.18365537
000160 e5 13 37 3e e4 6f 58 3e 2b dd 39 3e 98 f5 46 3e
       0.17878683 0.21136433 0.18150775 0.19429624
000170 7c d3 4c 3e 73 2c 48 3e 4d 34 43 3e 38 79 40 3e
       0.2000255 0.19548206 0.1906292 0.18796241
000180 39 20 65 3e a7 e9 3a 3e b1 91 3c 3e 31 85 3c 3e
       0.22375573 0.18253194 0.18414952 0.18410183
000190 27 3f 49 3e 79 58 36 3e 55 c8 34 3e 09 a6 3e 3e
       0.19652997 0.17807187 0.17654546 0.18618025
0001a0 6b 8a 2d 3e 0f 4f 34 3e 0c 55 4d 3e cb 20 50 3e
       0.16947334 0.17608283 0.20051974 0.2032501
0001b0 05 e1 6b 3e 30 ce 47 3e e7 4b 34 3e c0 31 34 3e
       0.23035057 0.19512248 0.1760708 0.17597103
0001c0 05 55 50 3e 8d f4 31 3e ec 07 2f 3e 7e d6 35 3e
       0.20344932 0.17378445 0.17092866 0.17757604
0001d0 13 d6 2a 3e ad c7 46 3e cf 9d 59 3e 79 95 6e 3e
       0.16683225 0.19412108 0.21251605 0.23299207
0001e0 ad 0d 2b 3e 78 5d 50 3e 6a cb 2d 3e 27 3f 46 3e
       0.16704436 0.20348155 0.16972128 0.19360028
0001f0 a2 d9 37 3e 20 53 31 3e b3 57 2b 3e 8e 93 29 3e
       0.17954114 0.17316866 0.16732673 0.16560194

bias f4 [128]
000000 16 83 c0 3b 67 5b 3a bc bb fa 56 3a 0c 68 64 3b
       0.0058750017 -0.011374331 0.0008200814 0.0034852056
000010 fa 2f 3a bb 43 52 18 bc d6 32 00 bc 33 90 91 bc
       -0.0028409944 -0.0092969565 -0.00782462 -0.017768955
000020 f3 49 c5 bb 8d 2a b1 ba 84 1d 59 bb 64 96 80 3b
       -0.0060207783 -0.001351671 -0.0033129165 0.003924178
000030 dd 3b 41 3b d8 75 21 bc 31 81 75 bc 76 cb aa 3c
       0.0029485144 -0.009854756 -0.014984415 0.02084897
000040 09 3f 56 ba 9a 29 12 3c 43 cb 50 bc 36 70 2f bb
       -0.0008172845 0.008921051 -0.012743774 -0.0026769764
000050 e5 0a 36 b9 a7 42 1b 3c 54 19 13 bc d5 78 91 3b
       -0.00017360931 0.00947634 -0.008978207 0.004439453
000060 b4 cc 59 3b de f0 40 3c f6 d0 b9 bb 82 93 95 bb
       0.0033233585 0.011776177 -0.005670662 -0.0045647034
000070 c3 1d 02 bc ff eb 46 bb e6 f8 7d bc f9 98 3b 3a
       -0.007941666 -0.0030353067 -0.015501237 0.00071562786
000080 bd 7c 0a bc c3 20 8d 3a 71 13 04 3b 6a 2b a3 b9
       -0.0084525915 0.001076721 0.002015319 -0.0003112213
000090 d0 ac f8 bb 86 a6 05 bc 63 fc 16 3c be 0f 29 bc
       -0.00758896 -0.008157378 0.009215447 -0.010318695
0000a0 a6 67 7f bc f4 03 f3 3b 4d ba ec ba 90 7b f5 3b
       -0.015588677 0.0074162427 -0.0018060893 0.0074915364
0000b0 cd 3a 54 3b 5f f4 43 bc 25 b6 86 bc c2 34 3b bc
       0.003238368 -0.011960118 -0.016444275 -0.011426153
0000c0 28 2b 30 bb b5 88 e1 b9 71 83 09 bc ff d0 25 bc
       -0.0026881192 -0.000430172 -0.0083931545 -0.010120629
0000d0 df 7c 72 3b b2 08 97 ba 11 7f 85 3c 88 29 60 bc
       0.0037000699 -0.0011522977 0.016295942 -0.013681777
0000e0 08 d6 06 39 97 b8 95 bb 1d 42 75 3c 72 07 c9 ba
       0.00012858969 -0.004569124 0.014969376 -0.0015337302
0000f0 b9 a2 74 bb bd 5e 0b 3c 8e 0e 07 bc 33 5f 8d bb
       -0.0037328436 0.008506474 -0.008243216 -0.004314327
000100 bc 03 d0 3b 9f 56 89 3a 78 1b 8f 3b a5 19 f6 bb
       0.0063481014 0.0010478086 0.004367288 -0.0075103813
000110 a5 be c7 bb f7 88 65 3b 57 72 38 bc ba 65 17 3c
       -0.0060957246 0.0035024264 -0.0112577295 0.009240562
000120 8c 73 c3 3b d0 d4 d6 bb eb a8 06 bc ac df f6 ba
       0.005964702 -0.006556131 -0.008218984 -0.001883497
000130 a5 58 12 bc 98 b3 29 bc da 52 b1 3a 83 01 97 bc
       -0.008932267 -0.01035776 0.001352872 -0.018433338
000140 e8 b7 d3 ba f0 c3 de bb 62 47 e2 bb be 3d e2 3a
       -0.0016152831 -0.00679826 -0.006905482 0.0017260832
000150 8b e3 47 ba b0 76 59 bc 7d ed 05 bb 26 db 32 bc
       -0.0007625154 -0.013272926 -0.0020435743 -0.010916507
000160 82 52 50 bb f9 fd 9c bc f3 53 b4 bb 49 7d 7b 3b
       -0.003178746 -0.019164072 -0.0055031716 0.0038374236
000170 95 3f 6a bb 19 24 0d bc 75 c9 7f 3c fe 2c 1f 3c
       -0.0035743464 -0.008614563 0.015611996 0.009715317
000180 59 0f 83 bc ea 9d 0a b8 27 de 05 bc 80 6b d8 3b
       -0.01599853 -3.3048833e-05 -0.008170641 0.006604612
000190 b8 c7 46 3b 24 fa 88 bb 80 5d 8f ba 15 7f 31 bb
       0.0030331444 -0.0041802097 -0.0010937899 -0.0027083803
0001a0 b5 0d 90 bb fd c8 fb bb c5 b0 29 bc e7 bf 71 bb
       -0.0043961653 -0.007683872 -0.010357087 -0.0036888064
0001b0 71 af 77 3a a5 a1 1d 3b f7 9a 29 bc 00 53 89 bb
       0.0009448445 0.0024052646 -0.010351888 -0.0041908026
0001c0 b5 7f 0d bc 1c 68 59 b9 3c ae 9f bb 4b 59 2a b6
       -0.008636405 -0.00020733516 -0.0048730653 -2.538395e-06
0001d0 7f 7c fe bb 1a 23 aa 3b d3 3d 9b 3c b1 c6 26 3c
       -0.007766306 0.0051921727 0.018950379 0.010179208
0001e0 96 81 9e bb 31 08 0f bc cb 62 1d bc b0 67 34 3b
       -0.004837225 -0.00872998 -0.009606074 0.0027527623
0001f0 f7 7c 17 bc db 24 0c bc 9c 35 9e bb 2a 6b 4b bc
       -0.0092461025 -0.008553709 -0.004828168 -0.012415687

running_mean f4 [128]
000000 52 01 05 3b 78 3a 4f bb 56 a6 dd ba 1b cb a4 3a
       0.0020294976 -0.0031620543 -0.0016910534 0.0012572737
000010 44 eb 63 bb ca 25 d7 3b 1b 16 5a 3b 16 c8 ed bb
       -0.003477768 0.006565784 0.0033277336 -0.007256518
000020 7d da d2 3b 4a 8b aa 3b 74 b4 af bb 60 d8 b3 b7
       0.0064347372 0.005204593 -0.005362088 -2.143922e-05
000030 f0 c9 df bb ec 2e 03 bc ec a6 f0 3a f0 14 9c 3b
       -0.0068294927 -0.0080067925 0.0018360293 0.004763238
000040 3a cc 15 bb 45 a9 1d 3c c0 97 82 3b ae 36 91 39
       -0.0022857324 0.0096228765 0.003985375 0.00027697295
000050 81 3d 85 3b 1c a2 82 ba 4e a1 b9 bb e0 a7 e4 ba
       0.0040661697 -0.0009966525 -0.005664981 -0.001744505
000060 de ec 9a bb 2e 29 8b bb b2 c9 a2 3b 8b 1b 27 3b
       -0.004727944 -0.0042468524 0.0049678916 0.0025498595
000070 73 82 82 bb e0 16 99 38 b2 a5 f8 3a 94 d8 0a 3c
       -0.003982836 7.299869e-05 0.001897028 0.008474488
000080 78 34 99 bb 34 e7 79 3b b7 89 4e bb 45 a5 67 3b
       -0.004675444 0.0038132193 -0.003151519 0.003534631
000090 a9 f0 7a bb 00 40 54 ba ed d2 f0 bb dc a9 c0 bb
       -0.0038290417 -0.0008096695 -0.007349363 -0.005879624
0000a0 d1 8c ce 3b fd 25 54 3b 0c a5 a7 bb 36 7b 38 3c
       0.0063034077 0.0032371276 -0.0051161107 0.0112598445
0000b0 10 3f 89 b9 7e 77 f3 ba 16 23 d8 ba 44 dd 09 3b
       -0.00026177661 -0.001857504 -0.0016489949 0.0021036426
0000c0 e3 d5 bf 3b 82 f4 ef 3b fd d0 3e 3b 2b 91 13 3b
       0.0058543547 0.007322849 0.0029116266 0.0022516947
0000d0 f6 4a e7 bb 2d b3 5e bb 1f a4 2c bc 39 3a 97 3b
       -0.0070584966 -0.0033981309 -0.010537176 0.004615095
0000e0 6b 68 db ba a7 2e 9b bb 1f 17 87 3b 97 17 c6 3a
       -0.0016739493 -0.004735786 0.0041226293 0.0015113231
0000f0 88 52 10 bc 17 ce 78 bb 10 1d 7b 3a 08 89 8f 3b
       -0.0088087395 -0.0037964636 0.0009579221 0.004380349
000100 a9 47 00 bc cf 77 c5 3b 80 6e 9c ba 48 2d ca b9
       -0.007829585 0.006026245 -0.0011934787 -0.0003856218
000110 ac 39 05 3c da e4 dc bb 07 7c 46 bb 17 0b 9d 3b
       0.008131426 -0.0067411484 -0.0030286328 0.004792582
000120 54 82 a0 3b e8 4f 6a bb 80 56 87 38 00 e1 41 bb
       0.004898349 -0.0035753194 6.4534135e-05 -0.0029583573
000130 68 3f 1d bb 21 e0 0f bb 38 a3 41 bb 60 cf 4d bb
       -0.0023994092 -0.002195366 -0.002954675 -0.0031404123
000140 18 d7 4c bb 8e a1 b0 3b 72 f2 32 3c 02 14 92 3b
       -0.0031256136 0.0053903526 0.010922061 0.0044579515
000150 24 70 89 3b 68 45 98 39 72 cd fe 3b 6a 8c 59 3b
       0.0041942764 0.0002904341 0.007775956 0.0033195266
000160 8a 10 f6 3b 9c d4 df 3b 64 98 17 3b ac f3 75 3b
       0.007509296 0.006830765 0.0023131603 0.0037529273
000170 fc e8 fd 3a d8 d2 fc 39 cf ce c5 bb f7 f0 0b bc
       0.0019371803 0.00048222276 -0.0060366164 -0.008541337
000180 40 0a 9a b9 98 94 af b9 69 59 95 3a fb c5 99 bb
       -0.00029380806 -0.00033489312 0.0011394444 -0.0046927906
000190 77 99 5c 3b d4 d6 22 bb 0b 73 80 bb ff 49 d7 bb
       0.0033660808 -0.0024847286 -0.003919964 -0.0065701003
0001a0 e9 a3 2a bb 20 58 92 b8 91 d1 2e 3c fd 97 99 bb
       -0.002603764 -6.978237e-05 0.010670082 -0.004687308
0001b0 82 c7 f7 bb 56 49 4c bc 4e 22 de bb ae aa 17 3b
       -0.007561625 -0.0124686565 -0.006778992 0.0023142505
0001c0 00 24 97 ba c3 b2 6f 3b 94 70 65 bb f7 bb 02 bb
       -0.0011531115 0.0036575056 -0.0035009729 -0.0019948462
0001d0 80 17 b1 3b 96 1c 18 bc 00 eb 27 bc 24 9f 23 3c
       0.0054044127 -0.009284159 -0.010248899 0.009986673
0001e0 c7 d9 34 3b b4 e2 18 39 48 bc b5 bb d2 40 39 bc
       0.0027595626 0.00014580303 -0.0055461265 -0.011306958
0001f0 67 0f 81 3b 40 6d 00 bb fe 33 c9 bb 50 03 4d ba
       0.0039386037 -0.0019596368 -0.006140231 -0.0007820623

running_var f4 [128]
000000 36 5b 6d 3c 62 f1 be 3c 14 66 2b 3d a0 74 99 3c
       0.014487078 0.02330846 0.041845396 0.018732369
000010 5b 80 59 3c 57 dd 30 3c 5e 44 9d 3c 12 4e c5 3c
       0.013275231 0.010794959 0.01919764 0.024085078
000020 25 35 88 3c 84 22 77 3c f7 1d 51 3c 65 0f 91 3c
       0.016626904 0.015083913 0.012763492 0.017707536
000030 3c 2e 4f 3c 8d 33 40 3c d0 a0 9e 3c 54 1c e2 3c
       0.0126453005 0.011731041 0.01936379 0.027601399
000040 66 53 de 3c 5a 00 ff 3c 36 05 56 3c f7 79 a5 3c
       0.027139377 0.031128097 0.013062766 0.020199759
000050 a7 43 35 3c 49 20 73 3c fc 62 ca 3c 5d 8e d6 3b
       0.011063493 0.01483924 0.024705403 0.0065477327
000060 7b 78 82 3c 66 ba b3 3c 34 bb 1d 3c 65 bf 0e 3c
       0.01592659 0.021939468 0.009627152 0.008712624
000070 f7 a3 78 3c 95 66 ab 3c ba cf 09 3c 04 3a dd 3c
       0.015175811 0.020922938 0.008411342 0.027005203
000080 92 1f 90 3c 57 c1 6e 3c a7 e2 53 3c e8 e1 6a 3c
       0.017593179 0.014572463 0.012932456 0.014336087
000090 aa 6c 12 3c b2 c4 97 3c d4 75 92 3c 53 eb 7b 3c
       0.00893704 0.018526409 0.01787845 0.01537593
0000a0 b7 29 27 3c 58 53 af 3c fe d9 81 3c 36 46 c8 3c
       0.010202817 0.021402046 0.015851017 0.024447542
0000b0 0e a9 d5 3c ea dd dc 3b 2a 00 8c 3c 54 e5 9a 3c
       0.026081588 0.0067403214 0.017089922 0.01890818
0000c0 02 4e 8b 3c f6 a9 93 3c bd 2d 6b 3c 8f a3 1e 3c
       0.01700497 0.01802538 0.014354167 0.00968255
0000d0 eb 42 f5 3b 2f e9 00 3c a6 b5 a4 3c c6 c0 bb 3c
       0.007484784 0.007868095 0.020106148 0.02291907
0000e0 eb c5 65 3c cf 34 88 3c 78 e4 ae 3c 63 ee 50 3c
       0.014024238 0.016626744 0.021349177 0.012752148
0000f0 a7 34 bc 3c 7e 49 9b 3c 80 22 a2 3c 2a a4 cc 3c
       0.022974325 0.018955942 0.019791842 0.024980623
000100 20 0a ff 3c 57 e4 79 3c c6 c2 9e 3c 47 60 99 3c
       0.031132758 0.015252194 0.019379985 0.018722666
000110 05 6f 17 3d a7 bf 47 3c a7 57 38 3c 99 c6 83 3c
       0.03697111 0.01219169 0.011251367 0.01608591
000120 97 88 d3 3c b1 51 00 3d 96 8c ec 3c 23 5b 64 3c
       0.025821967 0.031327907 0.02887563 0.013937744
000130 7d fc 3f 3c 01 45 2e 3c 9a 69 3b 3c 22 2a 53 3c
       0.011717913 0.010636569 0.011438752 0.012888463
000140 f9 e3 78 3c 0b 0f c5 3c 2a 51 8f 3c 66 26 d0 3c
       0.015191072 0.024055025 0.017494757 0.025408935
000150 d7 4a ce 3b 82 ca 08 3d 1a 22 5a 3c d0 0c ab 3c
       0.0062955427 0.03339625 0.0133137945 0.020880133
000160 1b 3e 42 3c 6a 34 ab 3c 44 5d 48 3c c4 83 8e 3c
       0.011855627 0.020899016 0.0122292675 0.017396815
000170 0a 26 5d 3c 70 05 6b 3c 90 4b c7 3c 7e 6c 3e 3c
       0.013497839 0.014344558 0.024328023 0.011622546
000180 20 5e e1 3c 46 e4 34 3c fa 95 60 3c 20 6a af 3c
       0.027510703 0.011040753 0.013707632 0.021412909
000190 87 d7 77 3c 4d 90 b3 3c f9 9d 9e 3c 2a 2b c4 3c
       0.015127069 0.021919394 0.019362437 0.023946363
0001a0 fc 7d 2a 3c ec 83 08 3c 8d 42 d5 3c 35 55 a9 3c
       0.010406014 0.008332234 0.02603271 0.020670513
0001b0 c1 5d db 3c 23 84 09 3d c2 3f a7 3c 73 cb 55 3c
       0.026778104 0.03357328 0.020416144 0.013048994
0001c0 2e 7d 8d 3c 9a d2 4c 3c 84 8e a5 3c 98 7d a2 3c
       0.017271604 0.012501383 0.020209558 0.019835278
0001d0 d2 6e 92 3c 60 73 c3 3c 22 03 ca 3c 6d 47 04 3d
       0.017875109 0.023858726 0.024659697 0.03229468
0001e0 c9 c9 0c 3c 6c 2b 79 3c 3a af 9f 3c 96 66 c6 3c
       0.008593031 0.0152081065 0.019492734 0.024218839
0001f0 30 fa 8a 3c 6d b3 7b 3c 42 86 5b 3c 11 ad 37 3c
       0.016965002 0.015362603 0.013398709 0.011210696

weight f4 [64, 128]
000000 07 c6 58 bc d9 bc ae bb 74 e3 4c 3b 4e 91 f8 bb
       -0.013230807 -0.005332571 0.0031263502 -0.007585681
000010 36 7c e2 bb 32 54 69 3a 2a 05 31 bb 58 71 8d bc
       -0.0069117798 0.00089007907 -0.0027011135 -0.01726596
000020 ec 72 35 bc 9e 4b 84 bc 9e ef fe b8 27 d6 60 b9
       -0.011074763 -0.016149338 -0.00012156296 -0.00021442083
000030 36 2b 86 3b 51 f9 42 bb 3d c0 99 3a 9c 80 a4 bb
       0.0040945066 -0.0029750655 0.0011730265 -0.0050202142
000040 55 e8 b0 3b 5f 47 d5 ba e0 16 8e bc a0 c6 5c 3c
       0.00539879 -0.0016271881 -0.017344892 0.01347509
000050 b2 a9 e7 bb fd 91 9e 3c 35 9e 6c bc ef 9c 9b bb
       -0.00706979 0.019356722 -0.014442016 -0.0047489326
000060 94 3b f6 bb fd 87 5b 3b d9 82 a2 3c 3b eb 25 bb
       -0.0075144265 0.0033497803 0.019837784 -0.002531721
000070 08 43 cb 3a dd 3a a6 bb 91 fc 1d 3b e5 d4 48 3c
       0.0015507648 -0.005072935 0.002410684 0.012257789
000080 34 c3 82 bc 7f 0b 26 bc 0b c1 0a 3c 19 a5 23 bc
       -0.01596222 -0.010134577 0.008468877 -0.009988093
000090 72 e5 29 bc bb b6 55 bc 9e e6 3a bc 86 15 60 bc
       -0.010369645 -0.013044055 -0.0114075225 -0.013677007
0000a0 59 68 92 3c 7d 67 e8 3b 51 58 7e 3c 42 00 97 bb
       0.017872022 0.007092415 0.015523986 -0.004608185
0000b0 32 b7 9a 3c 2c 12 ce 3b a0 55 31 ba f2 27 db bb
       0.018886182 0.0062887874 -0.0006764773 -0.0066881115
0000c0 8d de c9 3b 80 00 f4 bb de 4f 9d bb 71 ab 8b 3c
       0.0061605633 -0.0074463487 -0.0048007807 0.017049523
0000d0 de b5 2b 3b 5e f5 c9 3b a9 2f 27 3c 2e 0a 4c bc
       0.002620093 0.0061632833 0.010204234 -0.012453599
0000e0 30 ad 3d 3c 16 c6 dd bb 45 70 86 bc fb 6c da 3a
       0.011576936 -0.0067679984 -0.016410956 0.0016664559
0000f0 be 88 4c bc 7d 4f 7c 3b 64 a3 2c 3c 30 41 b3 3b
       -0.012483774 0.0038499527 0.010537002 0.0054704174
000100 56 b1 86 bb 3f ac f9 bb 65 24 04 3b d7 1d 94 3c
       -0.0041104956 -0.0076194103 0.0020163294 0.018080635
000110 50 81 26 3c bc 55 49 bb dc a6 7f ba 9e 60 6c bc
       0.010162666 -0.0030721268 -0.0009752342 -0.014427332
000120 00 f6 d3 3b 4e af 51 3b 6e e5 3a 3c 16 6e 42 bb
       0.0064685345 0.003199536 0.011407239 -0.0029667667
000130 43 17 a6 bb b3 4c 54 bc f9 9b 31 bc 69 40 3c bc
       -0.005068691 -0.01295774 -0.010840409 -0.011489966
000140 9f cd 8b bc 9b b1 ff bb 69 ad 93 bb 5f 0a 44 3b
       -0.017065821 -0.0078031546 -0.004506756 0.0029913408
000150 c3 7b 44 bc 70 77 83 bc 89 0b 49 bc 61 0b 06 3c
       -0.011992398 -0.016048163 -0.012270817 0.008181424
000160 77 82 55 ba d5 1f a5 3b a6 c4 e4 3c 11 b6 bf bb
       -0.0008144746 0.005039195 0.0279258 -0.0058505614
000170 6f 76 16 3c ae 46 96 3c 9f 9a bc bb f0 b8 c9 bb
       0.00918351 0.01834425 -0.005755737 -0.0061560795
000180 58 81 85 3c c9 f0 13 bc 73 b7 52 bc 4d 6c 25 ba
       0.016297027 -0.009029576 -0.0128611205 -0.00063103886
000190 4f 0c 78 3b 1c f1 f3 bb 62 6f 16 bc 62 d4 ee bb
       0.0037849133 -0.007444514 -0.009181829 -0.0072885016
0001a0 86 e9 02 bc d1 a2 d7 bb 62 f3 ce 3b 3a ff 0f bb
       -0.007990247 -0.0065806885 0.0063156346 -0.0021972195
0001b0 2d 8e 24 3d 5b ee 57 ba 70 e3 70 bc 75 9b a1 3b
       0.040174652 -0.0008237117 -0.014702663 0.004931862
0001c0 8f c1 57 bc a2 1a 15 3b 25 15 c9 bb 86 e1 fb 3b
       -0.013168707 0.002275147 -0.006136554 0.0076867966
0001d0 b2 a6 8b bc fa 07 2c bb 3d 3e 88 3c bd ae 9f 3a
       -0.01704726 -0.0026249872 0.01663124 0.0012182813
0001e0 b6 78 11 3c 18 af 8b 39 57 ce 2a bc 65 11 96 3b
       0.008878877 0.000266426 -0.010425172 0.0045797103
0001f0 75 f5 53 3c cd 5d 23 bc f0 d6 a5 3c 2b 27 df bb
       0.0129369395 -0.009971094 0.020244092 -0.006810089
000200 00 6f db bb d1 8b 8f bc c8 4f 0d 3d 6b b3 86 3c
       -0.006696582 -0.017522724 0.034499913 0.016442975
000210 66 ed 8e bc d3 bd e8 3b 35 9c 12 3c 79 f7 95 39
       -0.017447185 0.007102707 0.0089483755 0.00028603876
000220 72 c1 8d 3c 5f 75 2e bc 41 ac 93 bb a6 f3 bd bb
       0.017304156 -0.010648101 -0.0045066183 -0.0057968674
000230 8c 7b 88 3b 74 a5 f6 ba fc d4 3a bc fe c6 72 3c
       0.0041651186 -0.001881762 -0.0114033185 0.014817951
000240 d5 ca 2d bc 90 b7 39 bc 90 92 b3 3c 02 5f 17 bc
       -0.010607441 -0.011335269 0.021920472 -0.00923896
000250 f8 2d 9b 3c de 47 0a bc 80 2f 2c bc eb cd 0f bc
       0.018942818 -0.008439986 -0.010509372 -0.008777122
000260 2e 37 24 bc 08 16 a3 bc 54 36 c0 3a 45 2f 5a 3c
       -0.0100229215 -0.019907966 0.0014664629 0.013316934
000270 e8 e4 0e 3c 2b a4 7a 3b 71 65 08 bb 5a 9c 0e 3c
       0.008721568 0.0038244824 -0.0020812417 0.008704269
000280 02 67 92 bb 3b e2 57 bc f2 93 79 bc 07 49 29 bb
       -0.004467846 -0.013176496 -0.015233027 -0.0025830881
000290 6d 71 85 b7 d4 25 42 bc a8 11 0f bb b4 b4 cf bb
       -1.5907654e-05 -0.011849839 -0.0021830592 -0.00633868
0002a0 4a 46 bc 3c e5 9a ba 3c e8 41 0e 3c c7 bb f8 3c
       0.022982735 0.022778938 0.008682705 0.030362977
0002b0 45 97 b8 bb 5f e0 e8 bb 33 93 a6 3b 78 bb 51 3c
       -0.005633267 -0.0071068252 0.0050834655 0.012801044
0002c0 03 c6 80 3c ec 11 8a 3c 32 db e4 bb 09 10 8c b9
       0.01571942 0.016854249 -0.006984138 -0.00026714828
0002d0 62 9e 54 bb 69 93 44 bc 55 93 3b bb 30 e6 b0 3c
       -0.0032443036 -0.011998036 -0.0028621752 0.021594137
0002e0 28 9b 7c bb 3b 54 cc bb ed 26 80 3c 99 a3 28 bb
       -0.0038544629 -0.006235627 0.015643561 -0.0025732277
0002f0 77 90 d6 ba f4 d6 9d 3c a6 f6 d4 3c 95 4b 2d bc
       -0.0016369958 0.019267537 0.025996517 -0.010577102
000300 b5 0c 94 bc df e2 55 bc d9 e3 41 3b 43 0f 69 bc
       -0.018072465 -0.013054579 0.002958527 -0.01422483
000310 9d 15 f2 bb 6b 59 01 bc 0c c9 40 3c 4a 68 58 3c
       -0.0073878304 -0.007894854 0.011766683 0.013208458
000320 8c f7 00 3d 6d 6e 54 3a ef 8c 97 bb ef d1 bb bb
       0.03148608 0.0008103613 -0.004624955 -0.005731813
000330 99 4d 44 3c 66 30 50 3c e0 3a 30 bc 96 78 18 3c
       0.011981391 0.012706852 -0.010756224 0.009306094
000340 49 20 2d ba e1 13 39 b9 c1 45 af bb bb 85 9d ba
       -0.0006604237 -0.0001765038 -0.0053488915 -0.0012018004
000350 7a b0 5b 3c 11 de 80 3a e3 07 70 3b af 55 55 3c
       0.0134087745 0.0009831806 0.0036625795 0.013020917
000360 9f f4 27 3c ac 5d c8 3c f1 61 d6 ba 34 af 28 bb
       0.010251193 0.024458729 -0.0016356093 -0.0025739195
000370 b6 f1 9a 3b b8 77 1d 3c d1 a1 85 3b de 3c 28 bc
       0.004728521 0.009611063 0.004078128 -0.010268418
000380 e7 7a 0c bc 54 ae 2b 3b 3f e2 88 bb d0 a4 e4 bb
       -0.008574224 0.0026196437 -0.0041773613 -0.006977655
000390 83 96 14 3c 2a b3 ff bb df aa 81 bc a5 41 97 bb
       0.009069088 -0.0078033404 -0.015828548 -0.0046159797
0003a0 88 71 27 3c 13 e5 c9 bb e1 19 a8 3c d6 dc 50 3c
       0.010219939 -0.006161341 0.020520153 0.012747964
0003b0 60 34 cf bc ab d6 18 bc 69 58 ce bb 02 f1 61 3c
       -0.025293529 -0.009328525 -0.0062971604 0.013790371
0003c0 30 34 0b bc bd 81 10 bc cb 1d 77 3c a2 c3 0b 3c
       -0.008496329 -0.0088199945 0.015082787 0.008530529
0003d0 e5 a6 e3 3a 24 29 16 ba 31 f6 d2 bc 24 db ac 3b
       0.0017368464 -0.00057281763 -0.025752159 0.005275147
0003e0 8d 48 da bb fc 34 08 3d 37 7f 23 ba 6a 98 81 3b
       -0.0066614808 0.033253655 -0.0006236913 0.0039549368
0003f0 41 36 6e bc d9 6c e4 3b cb 81 c7 bb 6e a5 bc 3b
       -0.014539302 0.0069709835 -0.0060884706 0.0057570254

bias f4 [64]
000000 c7 d9 0b b1 15 73 ad 31 b3 9e 04 b1 bb 2a ad 30
       -2.0350954e-09 5.048046e-09 -1.9298738e-09 1.2599551e-09
000010 cf 4e 39 b1 5b 92 10 32 e0 78 43 31 99 97 83 32
       -2.696584e-09 8.4151806e-09 2.8444944e-09 1.5319346e-08
000020 bc d1 15 b2 c0 5b cb 30 05 5b 7b 30 b3 54 ba 31
       -8.7206296e-09 1.4796271e-09 9.1442615e-10 5.4229417e-09
000030 b4 44 11 b2 0c a2 c0 31 b6 8c a1 b1 78 2d c3 30
       -8.455732e-09 5.606358e-09 -4.7017137e-09 1.420104e-09
000040 a5 08 52 32 d9 1e 78 b1 a0 e8 b6 31 86 54 66 b1
       1.2225574e-08 -3.6106285e-09 5.3233435e-09 -3.351745e-09
000050 4b 94 b6 b1 2d 82 06 31 5d a7 6a 31 8a c9 07 30
       -5.313756e-09 1.9573563e-09 3.4146617e-09 4.939912e-10
000060 ea 90 3d b1 cf f5 88 31 4e 88 38 ae b3 ca a5 2f
       -2.7585494e-09 3.986066e-09 -4.195782e-11 3.0157352e-10
000070 84 ff fe b0 bf 32 e8 30 7b 61 12 b0 43 05 e6 b1
       -1.8553554e-09 1.6894645e-09 -5.325302e-10 -6.694479e-09
000080 8f 60 f9 31 e4 42 05 b1 1b 3a 5a 30 bc ff ac ae
       7.2578312e-09 -1.939207e-09 7.939051e-10 -7.867082e-11
000090 c3 3f 96 31 3f 01 67 b1 b7 12 b5 32 5e c8 3b 31
       4.3728234e-09 -3.3615632e-09 2.1079684e-08 2.7325977e-09
0000a0 0f 5d 29 30 70 9e 3c b0 af be 8a 32 c3 1a a8 31
       6.1614086e-10 -6.8619155e-10 1.6152027e-08 4.892486e-09
0000b0 2d c0 d3 b1 0b 1b 31 32 35 27 e1 b1 21 ab 37 31
       -6.162756e-09 1.0308905e-08 -6.552819e-09 2.672728e-09
0000c0 e6 e2 64 b2 01 28 db b1 2c 3a f3 ae 8b fe 77 31
       -1.3322937e-08 -6.378287e-09 -1.1060694e-10 3.6087922e-09
0000d0 96 8e e7 31 1a 49 35 b1 35 7e 74 b2 ce 71 09 b2
       6.739195e-09 -2.638052e-09 -1.4231365e-08 -8.000326e-09
0000e0 17 48 d5 30 0f 4e 02 32 e4 4b 3d 31 03 73 dc 30
       1.5518279e-09 7.584744e-09 2.7546259e-09 1.6039795e-09
0000f0 27 52 0f 30 2e e5 c6 31 be 2c 76 31 16 18 18 b1
       5.213984e-10 5.788613e-09 3.5823144e-09 -2.2132602e-09

weight f4 [64]
000000 85 71 3d 3e 04 7a 44 3e 41 ca 53 3e ee 35 47 3e
       0.18500336 0.1918717 0.20682622 0.19454166
000010 6c 9b 46 3e a8 11 50 3e dc 80 53 3e 57 21 69 3e
       0.19395226 0.20319235 0.20654625 0.22766624
000020 a1 22 74 3e ef 5d 8a 3e 78 39 46 3e 8b f3 34 3e
       0.23841335 0.2702479 0.1935786 0.1767103
000030 28 9f 45 3e 50 b8 3e 3e 10 a9 74 3e c9 68 32 3e
       0.19298995 0.18624997 0.23892617 0.17422785
000040 e9 c0 8e 3e 5d cb 50 3e 31 8a 45 3e a2 cb 57 3e
       0.27881554 0.20390077 0.19290997 0.21073774
000050 55 56 5f 3e 9b eb 38 3e 84 53 2e 3e 8a 88 43 3e
       0.21810277 0.18058626 0.17024046 0.19095054
000060 4f ef 45 3e 36 9e 4a 3e 3e 36 35 3e fa e5 3f 3e
       0.1932957 0.19786915 0.17696473 0.18740073
000070 cd f3 4a 3e 4c 62 62 3e f3 e0 74 3e 9c ae 4b 3e
       0.19819565 0.2210781 0.23913936 0.19890827
000080 d0 eb 48 3e 43 6f 53 3e c6 ff 5a 3e 03 c8 36 3e
       0.19621205 0.20647912 0.21386632 0.17849736
000090 bf fd 88 3e 4c e1 43 3e 9c c1 5f 3e 93 be 40 3e
       0.26756093 0.19128913 0.218512 0.18822698
0000a0 03 83 43 3e 62 a4 50 3e 45 b1 65 3e 38 c7 40 3e
       0.19092946 0.20375207 0.22430904 0.18825996
0000b0 92 e2 72 3e 76 7b 5f 3e e9 56 64 3e 4a ed 42 3e
       0.23719242 0.2182444 0.22298779 0.19035831
0000c0 4f c6 73 3e c0 53 69 3e 50 8b 3e 3e b2 64 63 3e
       0.23806117 0.22785854 0.18607831 0.22206381
0000d0 06 b7 4b 3e fe 56 45 3e 27 ab 52 3e 58 72 40 3e
       0.19894037 0.19271466 0.20573102 0.18793619
0000e0 a3 e3 5a 3e e5 41 59 3e 85 84 6e 3e e9 8a 32 3e
       0.21375899 0.21216543 0.2329274 0.17435803
0000f0 53 ef 50 3e db 87 56 3e 36 1c 40 3e 34 d3 37 3e
       0.20403795 0.20950262 0.18760762 0.17951661

bias f4 [64]
000000 55 2d 01 bc 72 48 e0 bb 32 27 fe 39 b5 a1 0d bc
       -0.007884343 -0.0068445737 0.00048475858 -0.008644511
000010 9a 2d 02 bc 93 c3 1f bc 9c 6c ef 3b 86 5b 0e 3b
       -0.007945443 -0.009751218 0.0073066484 0.0021722033
000020 f1 c7 3e bc 4d d6 78 3c a9 14 f4 3c b9 d0 fd bb
       -0.011644349 0.015187812 0.029795008 -0.007745829
000030 b7 7e 74 bb ad 3a 34 3b 4f ce e1 3c 2f 28 f4 3a
       -0.0037306973 0.0027500794 0.027564196 0.0018627698
000040 eb 27 5d bb 16 5e c6 ba b9 ce 37 bc 54 59 1b 3c
       -0.0033745717 -0.0015134241 -0.01121872 0.009481747
000050 74 dc d2 b9 9d 3f 9a 3b 27 2f be 3a 0d 59 03 bc
       -0.00040218572 0.0047072903 0.0014509902 -0.008016837
000060 dc 9c 8e bc 98 8f f1 bb a9 68 62 bc 64 57 47 3c
       -0.01740878 -0.007371854 -0.013818898 0.012166832
000070 28 8c 22 3c b5 85 17 3c 88 88 2d 3c 05 df 9c bb
       0.009921111 0.009248187 0.010591634 -0.004787328
000080 b2 54 aa 3c ca e0 8d 3a 1a 15 d8 bb e2 24 5b bb
       0.020792339 0.0010824439 -0.0065943124 -0.0033438732
000090 c6 6f 67 3c cf d9 8c 3c 8c 78 5d 3c ba 27 4c bc
       0.01412577 0.017193703 0.01351751 -0.012460643
0000a0 ae ca 8f bb 3c 61 f2 bb 42 0f 89 3c 5e 68 99 3a
       -0.004388175 -0.007396845 0.016730908 0.0011704077
0000b0 ee 50 c4 ba e9 bf c6 3b fe 90 2d bc 56 b7 3a bc
       -0.0014977732 0.006065358 -0.010593651 -0.01139625
0000c0 5c f3 8c 3c fb 77 bf 3b f3 62 e3 3a f4 aa 15 bc
       0.017205887 0.00584316 0.0017348215 -0.009134997
0000d0 a6 54 3f 3b ed 65 de 3b 71 13 2e bc a7 08 79 bb
       0.0029194742 0.006787053 -0.010624752 -0.0037999542
0000e0 04 c1 2c bb 94 26 2b 3a 4a 03 a7 3c 2b 2f 3f b9
       -0.0026360163 0.0006528881 0.02038731 -0.00018232751
0000f0 af f5 7c 3b 1a 4b 2c bc e8 e4 03 bc 86 b0 92 bb
       0.0038598587 -0.0105159525 -0.008050181 -0.0044766096

running_mean f4 [64]
000000 76 f5 a6 bb 54 cd 46 3c 93 92 72 3c 37 28 5c 3c
       -0.005095179 0.012133915 0.014805454 0.013437322
000010 53 46 0b bc e1 ce 79 bc 6a 17 33 bc 78 64 be bc
       -0.008500653 -0.015247078 -0.010930875 -0.023241267
000020 5c a1 13 bc 26 2e e3 3b 79 0e ec bb 01 d4 d6 bc
       -0.009010639 0.0069329916 -0.0072038737 -0.026224138
000030 94 65 5f bb 7e 5a 45 bc ea b4 9d bc c6 85 d5 b9
       -0.0034087645 -0.012045501 -0.019251306 -0.00040726195
000040 56 fe 09 bd 09 53 d6 3c 00 8f dc 3c 89 f3 06 bb
       -0.03368982 0.026162641 0.026923656 -0.0020591936
000050 ce fd 48 bc 96 9f 69 bc f7 73 fc 3a af c7 54 ba
       -0.012267543 -0.01425924 0.0019260634 -0.00081169134
000060 d6 26 33 3d e0 65 61 3c 33 8a 25 3c a0 8f d5 ba
       0.04373821 0.013757199 0.01010375 -0.0016293414
000070 29 ae a0 3c 5b 2d 47 bc 63 ef 40 bc 77 3a 83 3c
       0.019614296 -0.01215681 -0.011775824 0.01601909
000080 a3 8b 52 bb e2 ec 29 bc a0 80 95 3c 74 a6 da 3c
       -0.0032126687 -0.010371419 0.01824981 0.0266907
000090 fd 8e bd 3b a6 8e 06 3b 4a c6 96 bc 3c 1e 92 3c
       0.005784868 0.0020531802 -0.018405098 0.017836682
0000a0 46 c3 a5 bc 85 f7 e7 bc 9b 74 83 bb 3c 33 18 3c
       -0.020234715 -0.028316269 -0.004011703 0.009289559
0000b0 0c 14 ef 3a dc f0 c0 bb f8 4a 1d 3d 6f 44 4c 3c
       0.0018240227 -0.0058880877 0.038401574 0.012467488
0000c0 58 0e 8f 3c e7 36 d8 3a 75 48 41 bc 80 70 3a 3c
       0.017462894 0.0016495854 -0.01179706 0.011379361
0000d0 34 92 8b 3c 6c a8 4d 3c b2 cb 8a 3b 8f 38 70 bb
       0.017037489 0.012552362 0.004235708 -0.0036654805
0000e0 51 b2 09 3c 02 65 91 3b 2a fd 0c 3c 54 ba 2e bc
       0.00840433 0.00443709 0.008605281 -0.010664541
0000f0 4d bb 05 bc 45 66 2f 3b dc 0e af 3c f9 7a f9 bb
       -0.008162332 0.0026763838 0.02136939 -0.0076135364

running_var f4 [64]
000000 e7 df 36 3a c9 d8 c3 3a 7f 53 d4 3a 32 be 90 3a
       0.0006976113 0.0014941926 0.00161992 0.0011043011
000010 fa 0b 97 3a e5 aa ae 3a a0 69 b6 3a af b9 b5 3a
       0.0011523955 0.0013326077 0.0013916977 0.0013864542
000020 96 d9 c0 3a ee fa 22 3b 15 0b db 3a c4 4e 67 3a
       0.0014713283 0.0024868804 0.0016711677 0.00088236877
000030 5b 4d 8a 3a be db 27 3a 6c e3 1f 3b 6c 88 13 3a
       0.0010551618 0.00064032886 0.0024397029 0.00056279334
000040 e6 ae 3e 3b 3a 43 80 3a a3 31 86 3a 52 38 dc 3a
       0.0029095947 0.000978566 0.0010238182 0.0016801453
000050 92 c6 02 3b 53 ae 25 3a 1f f5 05 3a c7 a3 82 3a
       0.0019954783 0.0006320227 0.0005110073 0.0009967022
000060 39 19 8c 3a d2 86 6e 3a a2 1a 44 3a fa be 40 3a
       0.0010688669 0.0009099069 0.0007480775 0.00073526765
000070 0e 9e 99 3a 6f bc 1a 3b 60 97 18 3b 98 33 88 3a
       0.0011720078 0.002361085 0.0023283586 0.0010391353
000080 20 13 b2 3a 3e e0 bc 3a 6e 2a c1 3a 9d 2d 0e 3a
       0.0013586022 0.0014410091 0.0014737376 0.0005423667
000090 6c cb 3a 3b fc 76 b5 3a b8 dc cb 3a d8 c5 0a 3a
       0.0028502597 0.0013844664 0.001555345 0.0005293763
0000a0 68 1d 72 3a 40 dc b0 3a 57 d9 16 3b 98 98 36 3a
       0.0009235949 0.0013493374 0.0023017728 0.0006965487
0000b0 3b f5 09 3b d9 21 e2 3a 55 39 88 3a e8 16 4c 3a
       0.002105071 0.0017252519 0.0010393063 0.0007785396
0000c0 1c 3c 52 3b f6 a0 0c 3b c2 60 87 3a 3d f1 bd 3a
       0.0032079285 0.0021458245 0.0010328519 0.001449145
0000d0 72 35 a0 3a c9 3d 99 3a c7 b5 95 3a f6 eb 31 3a
       0.0012222959 0.0011691387 0.0011421972 0.0006787175
0000e0 b9 90 b9 3a 76 51 a6 3a 93 fe 2d 3b ee f2 07 3a
       0.0014157511 0.0012689072 0.0026549443 0.00051860407
0000f0 b7 b5 a1 3a 47 97 b5 3a 75 0a 8f 3a 0c 94 3d 3a
       0.001233748 0.0013854288 0.0010913151 0.00072318385

weight f4 [32, 64]
000000 1d 5f 7a 3a 22 f4 0f 3d 4e bf c4 3b 62 a3 64 3c
       0.0009550916 0.035144933 0.0060042506 0.013954969
000010 ad ce 12 3d 9a 08 d1 bc a6 62 af 3c 8a f8 82 3b
       0.035841633 -0.025516797 0.021409344 0.0039969133
000020 72 ae bf 3c bd 66 b4 bc 3b d9 45 3c d3 a1 97 3a
       0.023398612 -0.022021646 0.012075718 0.0011568613
000030 eb 04 24 bc 9c f9 05 3c 60 96 26 3c 64 9f ea 3b
       -0.010010938 0.008177187 0.010167688 0.007160114
000040 fd 67 41 3c ed 52 2f 3d e8 bd 82 bb 30 e7 4f 3b
       0.011804578 0.042803694 -0.0039899237 0.0031723492
000050 d7 db ea 3c 4f ad 28 3d 59 90 8d 3c 91 32 ac bb
       0.028669281 0.041180905 0.017280744 -0.0052550514
000060 f0 cf 02 bd 95 48 82 3c 11 9b e0 3c 68 85 9a 3c
       -0.031936586 0.01590375 0.027417691 0.018862441
000070 43 76 98 3c fc 4f ac bc 7d 0d 8a bb cd 9b eb ba
       0.01861108 -0.021034233 -0.0042130337 -0.0017975509
000080 a4 47 81 bb 2a 4c 81 3d 95 99 40 bd 81 20 95 3c
       -0.003945308 0.06313355 -0.047021467 0.018203976
000090 2c 5e 6b bc 1c 98 30 bc 49 a9 f6 bc 0d 53 88 bc
       -0.014365714 -0.010778453 -0.030110018 -0.016641164
0000a0 bb 09 56 3d 0c 48 cf 3c 46 d4 46 3c 06 95 ae bc
       0.052255373 0.02530291 0.012135571 -0.021311294
0000b0 8d 39 04 bc f3 8c 39 bc 24 79 6b bc 16 b0 fe 3c
       -0.008070362 -0.011325109 -0.014372144 0.031089824
0000c0 c9 6e ad bc cd 79 4e bc 33 d2 a0 3c 92 0e d6 3b
       -0.02117099 -0.012602282 0.01963148 0.0065324986
0000d0 48 ec d6 3c 8f 59 6e 3c 48 35 a3 3b 26 d6 a6 bc
       0.026235715 0.01454772 0.004980717 -0.020365786
0000e0 5e f4 68 3c 7b ec 1f 3d 98 cc d0 ba e9 8c a6 3c
       0.014218418 0.039043885 -0.0015930114 0.020330863
0000f0 b9 33 92 bc 8a 09 e7 bc 91 27 da 3c 70 79 9a bc
       -0.017846929 -0.02820279 0.026630195 -0.018856734
000100 7c 38 66 3b 97 95 61 bc 0a 7d 1f 3c cd 6f e5 3b
       0.0035128882 -0.013768575 0.0097344015 0.007001853
000110 ed da 91 bb a6 49 c7 3c 3b 32 3d 3c 2a cf ea 3c
       -0.004451147 0.02432711 0.01154762 0.028663237
000120 ad 42 47 3c cd 7d bb bc 0e 57 b0 bc 18 02 01 3d
       0.012161893 -0.022887135 -0.021525886 0.031496137
000130 70 e1 19 bc 96 49 eb 3c 4f a1 a0 3b 5a 7b fe 3b
       -0.009392127 0.028721612 0.004902042 0.0077661695
000140 73 c2 22 3d 8b b4 e5 bc 5a 90 e7 bb 84 e7 68 bc
       0.039736222 -0.028040191 -0.0070667686 -0.014215354
000150 03 49 7b 3c f1 63 c4 bc 43 7f db bc 0a 79 c2 3b
       0.015337232 -0.023973437 -0.026794082 0.005934839
000160 1b b1 e2 bb a6 86 b2 3c 91 c9 70 bc 41 a9 86 bc
       -0.0069180853 0.021792721 -0.014696495 -0.016438128
000170 7c 23 ae bc ec 49 89 3c e2 63 db bc b2 cc 6c 3b
       -0.021257155 0.016758882 -0.026781026 0.003613275
000180 bd 0e df bc 29 03 12 3c 45 6a 97 bc 32 ce bf bc
       -0.027228707 0.008911886 -0.01848329 -0.023413751
000190 32 f4 04 bb e4 f4 0e 3d f5 6a 1d bc 49 6d 01 3c
       -0.0020287153 0.034901515 -0.00960802 0.007899591
0001a0 54 be aa 3c 13 24 b6 bb 61 c7 88 3b 96 33 e8 bb
       0.020842709 -0.0055584996 0.0041741584 -0.0070862276
0001b0 81 9f b5 bc 68 25 01 3c 14 50 cd bc 86 5b 64 bc
       -0.022170784 0.0078824535 -0.025062598 -0.0139378365
0001c0 47 5a ea 3c f6 74 0d 3b b3 53 64 bc 38 ad 9a ba
       0.0286075 0.0021584607 -0.013935971 -0.0011800891
0001d0 7b 0f 2a bc 1d 49 ea bb b4 d4 c4 bc da 3f d7 3b
       -0.010379667 -0.007149829 -0.024027206 0.006568891
0001e0 63 7e 0f 3d fd e9 6a 3c cc c7 1d bc a7 8f 06 bc
       0.03503264 0.014338014 -0.009630155 -0.00821296
0001f0 21 ec 37 bc e0 74 3d bb a9 0c 9f 3c b2 84 e3 3c
       -0.011225731 -0.0028908774 0.019415217 0.027773235
000200 53 68 36 3b 3c f1 02 3d cc 78 e7 3b 2f a3 2e bc
       0.0027833178 0.03196834 0.0070639607 -0.010659023
000210 03 36 5d bc 82 bb 98 bc d3 29 c1 bb a2 f2 ad 3b
       -0.013501647 -0.018644098 -0.0058948784 0.005308465
000220 3f 3b 05 3c 91 d6 0e bc ac 2c 87 bb d0 79 65 3c
       0.008131801 -0.008718149 -0.0041251983 0.014006093
000230 22 dc 22 bc 8c 70 82 bc 36 79 a2 3c fe 78 d6 3c
       -0.009940179 -0.015922807 0.019833189 0.02618074
000240 76 3a 84 bb 95 e9 8f bc 93 6c 44 ba 1d dd d6 3c
       -0.0040352894 -0.017567435 -0.00074929855 0.026228482
000250 96 2f 18 3c 0a 89 83 bb fd 19 ed 3c 01 37 18 bc
       0.009288689 -0.004014139 0.028943056 -0.009290458
000260 63 11 ae 3a 8b 2b c9 ba 0f f1 00 3d 11 6d 28 bb
       0.0013280328 -0.001534806 0.03147989 -0.0025699774
000270 9b aa 29 3d c7 d0 2b 3b ae 41 6c 3c b5 b2 95 3c
       0.041422468 0.002621697 0.014419956 0.01827369
000280 22 72 9a bc 8c 9b c7 3a 53 ba 32 3c 67 a6 b6 3a
       -0.01885325 0.0015228852 0.010908681 0.001393509
000290 eb a2 91 3c 4f 45 07 bc 5a 44 e3 3c cc 82 c1 bb
       0.01777788 -0.008256271 0.027742554 -0.005905485
0002a0 15 68 00 bc 9a 69 2f 3d 56 10 94 b9 cd e4 ae 3c
       -0.007837315 0.04282532 -0.0002824093 0.021349335
0002b0 c6 64 9b 3b 83 fc e4 bc 0a 2b 31 3c 2c 23 8d 3c
       0.0047422377 -0.027952438 0.010813484 0.017228685
0002c0 08 3a a2 bc a3 c7 1c 3c 17 47 9a 3c 79 5e 4b bc
       -0.019803062 0.0095690815 0.018832726 -0.012412661
0002d0 d7 78 84 3c 7b 75 97 bc 7a 67 21 bc 04 9c 9d 3b
       0.016170902 -0.018488636 -0.009851331 0.0048098583
0002e0 93 5d 38 bc 08 6b 14 3c 9c e9 ce 3c 53 52 a2 3c
       -0.011252779 0.009058721 0.025257878 0.019814646
0002f0 ed 55 6a 3c 6c 28 3a 3d e8 4c 81 3b 63 40 49 bc
       0.014302713 0.045448706 0.0039459355 -0.012283417
000300 da 80 07 bb f1 de 37 bb 45 1c a7 bb 1d 84 e0 3b
       -0.0020676167 -0.0028056467 -0.0050998055 0.0068516866
000310 89 44 79 bb d1 3c 05 bb c1 e5 90 3b 7f ec f4 bb
       -0.0038035235 -0.002033044 0.00442192 -0.0074744816
000320 4f 98 20 3c bd ba 6e bb 8f 88 28 bb f2 de 63 39
       0.009801938 -0.0036427223 -0.002571616 0.0002173146
000330 da 49 dc 3a 9a 94 8a ba 67 6d 79 39 71 4e a6 bb
       0.0016806677 -0.0010572851 0.00023787246 -0.005075269
000340 3b 72 71 3c fb 47 34 3b df 07 84 39 2d de 1c bb
       0.014736707 0.0027508724 0.00025182866 -0.0023936138
000350 46 dd c0 3b d1 5e c2 3b 48 c5 e1 3b 87 01 b1 bb
       0.005885753 0.005931713 0.006889973 -0.0054017934
000360 ef f2 82 3b a3 ee d7 3b 48 32 12 3b 57 f3 a1 bb
       0.003996245 0.006589727 0.0022307802 -0.0049423384
000370 32 ec d4 bb ee 7b a8 3b ae d9 0d bb 6a 82 e4 3a
       -0.0064978832 0.0051417267 -0.002164464 0.0017433886
000380 08 ad 05 bb 76 65 b7 3b d0 a2 25 bb ea ab 81 bb
       -0.0020397324 0.005596812 -0.0025274046 -0.0039572613
000390 cf b2 89 bb 6b b6 83 3b 42 34 b4 ba 3b 41 90 bb
       -0.004202224 0.0040195487 -0.0013748484 -0.0044023073
0003a0 45 f5 44 3a 89 f6 26 3a 45 11 6c bb c2 cf e5 b9
       0.00075133546 0.0006369134 -0.0036021036 -0.00043833075
0003b0 5e f3 ab bb 69 fe 26 3c d6 d1 95 b8 f4 ad d7 bb
       -0.0052475175 0.010192492 -7.143959e-05 -0.006582016
0003c0 94 39 12 3c 63 3d 6a 3a de be fd ba 38 70 53 3b
       0.0089248605 0.0008935539 -0.0019359251 0.0032262933
0003d0 5b 3f d0 3b 90 90 0c 3c 60 15 c5 3b 01 3e 44 37
       0.006355209 0.008579388 0.006014511 1.1696947e-05
0003e0 af 89 0a 3c d0 93 0b 3c ef 42 da bb 6b 73 71 38
       0.008455678 0.008519128 -0.006660811 5.756637e-05
0003f0 b3 44 58 bb 79 bf 5f 3a 6d 06 97 3b 92 a3 45 bb
       -0.0032999932 0.00085353066 0.0046089203 -0.003015731

bias f4 [32]
000000 d7 71 83 30 ae 36 5a 31 54 e4 16 b2 8f 9e 84 b1
       9.56386e-10 3.1754257e-09 -8.783065e-09 -3.8597316e-09
000010 f3 45 44 32 17 5c 0f 31 91 14 01 b1 97 cd d2 af
       1.1424606e-08 2.0861586e-09 -1.8783661e-09 -3.8344858e-10
000020 0c 8d b6 b1 b9 e4 4d b1 57 86 0b 31 a8 a9 25 31
       -5.3129323e-09 -2.996144e-09 2.0303526e-09 2.4107099e-09
000030 17 30 f3 af 3c 1f 95 b1 33 33 08 b2 33 42 a7 b1
       -4.4235612e-10 -4.3400217e-09 -7.927883e-09 -4.8678657e-09
000040 af 0b 71 b2 e3 bf c4 af f5 cd d6 31 b6 5d 23 32
       -1.4030703e-08 -3.5788536e-10 6.2516343e-09 9.509156e-09
000050 fd 32 d3 31 ff 04 1c 30 63 2b 1d 32 5c f3 34 b1
       6.146705e-09 5.675957e-10 9.148468e-09 -2.6331781e-09
000060 0a 4b d8 31 fb 7d 41 2f 3d 78 f0 b1 41 35 ab b0
       6.2949583e-09 1.7598005e-10 -6.998589e-09 -1.2457023e-09
000070 06 e7 91 33 48 4d 0c 2e 7e 43 76 b1 3e 79 18 b0
       6.7941116e-08 3.1900954e-11 -3.5836076e-09 -5.5469573e-10
